…
/home/ytwang/anaconda3/lib/python3.8/site-packages/torch/nn/_reduction.py:44: UserWarning: size_average and reduce args will be deprecated, please use reduction='mean' instead.
  warnings.warn(warning.format(ret))
=> classes: ['__background__', 'person']
=> num_images: 118287
=> load 149813 samples
=> classes: ['__background__', 'person']
=> num_images: 5000
=> load 6352 samples
=> creating output/coco/pose_shufflenetv2_50/256x192_d256x3_adam_lr1e-3_shuffle
=> creating log/coco/pose_shufflenetv2_50/256x192_d256x3_adam_lr1e-3_shuffle_2021-03-09-21-59
PoseShuffleNet(
  (conv1): Sequential(
    (0): Conv2d(3, 24, kernel_size=(3, 3), stride=(2, 2), padding=(1, 1), bias=False)
    (1): BatchNorm2d(24, eps=1e-05, momentum=0.1, affine=True, track_running_stats=True)
    (2): ReLU(inplace=True)
  )
  (maxpool): MaxPool2d(kernel_size=3, stride=2, padding=1, dilation=1, ceil_mode=False)
  (stage2): Sequential(
    (0): InvertedResidual(
      (branch1): Sequential(
        (0): Conv2d(24, 24, kernel_size=(3, 3), stride=(2, 2), padding=(1, 1), groups=24, bias=False)
        (1): BatchNorm2d(24, eps=1e-05, momentum=0.1, affine=True, track_running_stats=True)
        (2): Conv2d(24, 58, kernel_size=(1, 1), stride=(1, 1), bias=False)
        (3): BatchNorm2d(58, eps=1e-05, momentum=0.1, affine=True, track_running_stats=True)
        (4): ReLU(inplace=True)
      )
      (branch2): Sequential(
        (0): Conv2d(24, 58, kernel_size=(1, 1), stride=(1, 1), bias=False)
        (1): BatchNorm2d(58, eps=1e-05, momentum=0.1, affine=True, track_running_stats=True)
        (2): ReLU(inplace=True)
        (3): Conv2d(58, 58, kernel_size=(3, 3), stride=(2, 2), padding=(1, 1), groups=58, bias=False)
        (4): BatchNorm2d(58, eps=1e-05, momentum=0.1, affine=True, track_running_stats=True)
        (5): Conv2d(58, 58, kernel_size=(1, 1), stride=(1, 1), bias=False)
        (6): BatchNorm2d(58, eps=1e-05, momentum=0.1, affine=True, track_running_stats=True)
        (7): ReLU(inplace=True)
      )
    )
    (1): InvertedResidual(
      (branch1): Sequential()
      (branch2): Sequential(
        (0): Conv2d(58, 58, kernel_size=(1, 1), stride=(1, 1), bias=False)
        (1): BatchNorm2d(58, eps=1e-05, momentum=0.1, affine=True, track_running_stats=True)
        (2): ReLU(inplace=True)
        (3): Conv2d(58, 58, kernel_size=(3, 3), stride=(1, 1), padding=(1, 1), groups=58, bias=False)
        (4): BatchNorm2d(58, eps=1e-05, momentum=0.1, affine=True, track_running_stats=True)
        (5): Conv2d(58, 58, kernel_size=(1, 1), stride=(1, 1), bias=False)
        (6): BatchNorm2d(58, eps=1e-05, momentum=0.1, affine=True, track_running_stats=True)
        (7): ReLU(inplace=True)
      )
    )
    (2): InvertedResidual(
      (branch1): Sequential()
      (branch2): Sequential(
        (0): Conv2d(58, 58, kernel_size=(1, 1), stride=(1, 1), bias=False)
        (1): BatchNorm2d(58, eps=1e-05, momentum=0.1, affine=True, track_running_stats=True)
        (2): ReLU(inplace=True)
        (3): Conv2d(58, 58, kernel_size=(3, 3), stride=(1, 1), padding=(1, 1), groups=58, bias=False)
        (4): BatchNorm2d(58, eps=1e-05, momentum=0.1, affine=True, track_running_stats=True)
        (5): Conv2d(58, 58, kernel_size=(1, 1), stride=(1, 1), bias=False)
        (6): BatchNorm2d(58, eps=1e-05, momentum=0.1, affine=True, track_running_stats=True)
        (7): ReLU(inplace=True)
      )
    )
    (3): InvertedResidual(
      (branch1): Sequential()
      (branch2): Sequential(
        (0): Conv2d(58, 58, kernel_size=(1, 1), stride=(1, 1), bias=False)
        (1): BatchNorm2d(58, eps=1e-05, momentum=0.1, affine=True, track_running_stats=True)
        (2): ReLU(inplace=True)
        (3): Conv2d(58, 58, kernel_size=(3, 3), stride=(1, 1), padding=(1, 1), groups=58, bias=False)
        (4): BatchNorm2d(58, eps=1e-05, momentum=0.1, affine=True, track_running_stats=True)
        (5): Conv2d(58, 58, kernel_size=(1, 1), stride=(1, 1), bias=False)
        (6): BatchNorm2d(58, eps=1e-05, momentum=0.1, affine=True, track_running_stats=True)
        (7): ReLU(inplace=True)
      )
    )
  )
  (stage3): Sequential(
    (0): InvertedResidual(
      (branch1): Sequential(
        (0): Conv2d(116, 116, kernel_size=(3, 3), stride=(2, 2), padding=(1, 1), groups=116, bias=False)
        (1): BatchNorm2d(116, eps=1e-05, momentum=0.1, affine=True, track_running_stats=True)
        (2): Conv2d(116, 116, kernel_size=(1, 1), stride=(1, 1), bias=False)
        (3): BatchNorm2d(116, eps=1e-05, momentum=0.1, affine=True, track_running_stats=True)
        (4): ReLU(inplace=True)
      )
      (branch2): Sequential(
        (0): Conv2d(116, 116, kernel_size=(1, 1), stride=(1, 1), bias=False)
        (1): BatchNorm2d(116, eps=1e-05, momentum=0.1, affine=True, track_running_stats=True)
        (2): ReLU(inplace=True)
        (3): Conv2d(116, 116, kernel_size=(3, 3), stride=(2, 2), padding=(1, 1), groups=116, bias=False)
        (4): BatchNorm2d(116, eps=1e-05, momentum=0.1, affine=True, track_running_stats=True)
        (5): Conv2d(116, 116, kernel_size=(1, 1), stride=(1, 1), bias=False)
        (6): BatchNorm2d(116, eps=1e-05, momentum=0.1, affine=True, track_running_stats=True)
        (7): ReLU(inplace=True)
      )
    )
    (1): InvertedResidual(
      (branch1): Sequential()
      (branch2): Sequential(
        (0): Conv2d(116, 116, kernel_size=(1, 1), stride=(1, 1), bias=False)
        (1): BatchNorm2d(116, eps=1e-05, momentum=0.1, affine=True, track_running_stats=True)
        (2): ReLU(inplace=True)
        (3): Conv2d(116, 116, kernel_size=(3, 3), stride=(1, 1), padding=(1, 1), groups=116, bias=False)
        (4): BatchNorm2d(116, eps=1e-05, momentum=0.1, affine=True, track_running_stats=True)
        (5): Conv2d(116, 116, kernel_size=(1, 1), stride=(1, 1), bias=False)
        (6): BatchNorm2d(116, eps=1e-05, momentum=0.1, affine=True, track_running_stats=True)
        (7): ReLU(inplace=True)
      )
    )
    (2): InvertedResidual(
      (branch1): Sequential()
      (branch2): Sequential(
        (0): Conv2d(116, 116, kernel_size=(1, 1), stride=(1, 1), bias=False)
        (1): BatchNorm2d(116, eps=1e-05, momentum=0.1, affine=True, track_running_stats=True)
        (2): ReLU(inplace=True)
        (3): Conv2d(116, 116, kernel_size=(3, 3), stride=(1, 1), padding=(1, 1), groups=116, bias=False)
        (4): BatchNorm2d(116, eps=1e-05, momentum=0.1, affine=True, track_running_stats=True)
        (5): Conv2d(116, 116, kernel_size=(1, 1), stride=(1, 1), bias=False)
        (6): BatchNorm2d(116, eps=1e-05, momentum=0.1, affine=True, track_running_stats=True)
        (7): ReLU(inplace=True)
      )
    )
    (3): InvertedResidual(
      (branch1): Sequential()
      (branch2): Sequential(
        (0): Conv2d(116, 116, kernel_size=(1, 1), stride=(1, 1), bias=False)
        (1): BatchNorm2d(116, eps=1e-05, momentum=0.1, affine=True, track_running_stats=True)
        (2): ReLU(inplace=True)
        (3): Conv2d(116, 116, kernel_size=(3, 3), stride=(1, 1), padding=(1, 1), groups=116, bias=False)
        (4): BatchNorm2d(116, eps=1e-05, momentum=0.1, affine=True, track_running_stats=True)
        (5): Conv2d(116, 116, kernel_size=(1, 1), stride=(1, 1), bias=False)
        (6): BatchNorm2d(116, eps=1e-05, momentum=0.1, affine=True, track_running_stats=True)
        (7): ReLU(inplace=True)
      )
    )
    (4): InvertedResidual(
      (branch1): Sequential()
      (branch2): Sequential(
        (0): Conv2d(116, 116, kernel_size=(1, 1), stride=(1, 1), bias=False)
        (1): BatchNorm2d(116, eps=1e-05, momentum=0.1, affine=True, track_running_stats=True)
        (2): ReLU(inplace=True)
        (3): Conv2d(116, 116, kernel_size=(3, 3), stride=(1, 1), padding=(1, 1), groups=116, bias=False)
        (4): BatchNorm2d(116, eps=1e-05, momentum=0.1, affine=True, track_running_stats=True)
        (5): Conv2d(116, 116, kernel_size=(1, 1), stride=(1, 1), bias=False)
        (6): BatchNorm2d(116, eps=1e-05, momentum=0.1, affine=True, track_running_stats=True)
        (7): ReLU(inplace=True)
      )
    )
    (5): InvertedResidual(
      (branch1): Sequential()
      (branch2): Sequential(
        (0): Conv2d(116, 116, kernel_size=(1, 1), stride=(1, 1), bias=False)
        (1): BatchNorm2d(116, eps=1e-05, momentum=0.1, affine=True, track_running_stats=True)
        (2): ReLU(inplace=True)
        (3): Conv2d(116, 116, kernel_size=(3, 3), stride=(1, 1), padding=(1, 1), groups=116, bias=False)
        (4): BatchNorm2d(116, eps=1e-05, momentum=0.1, affine=True, track_running_stats=True)
        (5): Conv2d(116, 116, kernel_size=(1, 1), stride=(1, 1), bias=False)
        (6): BatchNorm2d(116, eps=1e-05, momentum=0.1, affine=True, track_running_stats=True)
        (7): ReLU(inplace=True)
      )
    )
    (6): InvertedResidual(
      (branch1): Sequential()
      (branch2): Sequential(
        (0): Conv2d(116, 116, kernel_size=(1, 1), stride=(1, 1), bias=False)
        (1): BatchNorm2d(116, eps=1e-05, momentum=0.1, affine=True, track_running_stats=True)
        (2): ReLU(inplace=True)
        (3): Conv2d(116, 116, kernel_size=(3, 3), stride=(1, 1), padding=(1, 1), groups=116, bias=False)
        (4): BatchNorm2d(116, eps=1e-05, momentum=0.1, affine=True, track_running_stats=True)
        (5): Conv2d(116, 116, kernel_size=(1, 1), stride=(1, 1), bias=False)
        (6): BatchNorm2d(116, eps=1e-05, momentum=0.1, affine=True, track_running_stats=True)
        (7): ReLU(inplace=True)
      )
    )
    (7): InvertedResidual(
      (branch1): Sequential()
      (branch2): Sequential(
        (0): Conv2d(116, 116, kernel_size=(1, 1), stride=(1, 1), bias=False)
        (1): BatchNorm2d(116, eps=1e-05, momentum=0.1, affine=True, track_running_stats=True)
        (2): ReLU(inplace=True)
        (3): Conv2d(116, 116, kernel_size=(3, 3), stride=(1, 1), padding=(1, 1), groups=116, bias=False)
        (4): BatchNorm2d(116, eps=1e-05, momentum=0.1, affine=True, track_running_stats=True)
        (5): Conv2d(116, 116, kernel_size=(1, 1), stride=(1, 1), bias=False)
        (6): BatchNorm2d(116, eps=1e-05, momentum=0.1, affine=True, track_running_stats=True)
        (7): ReLU(inplace=True)
      )
    )
  )
  (stage4): Sequential(
    (0): InvertedResidual(
      (branch1): Sequential(
        (0): Conv2d(232, 232, kernel_size=(3, 3), stride=(2, 2), padding=(1, 1), groups=232, bias=False)
        (1): BatchNorm2d(232, eps=1e-05, momentum=0.1, affine=True, track_running_stats=True)
        (2): Conv2d(232, 232, kernel_size=(1, 1), stride=(1, 1), bias=False)
        (3): BatchNorm2d(232, eps=1e-05, momentum=0.1, affine=True, track_running_stats=True)
        (4): ReLU(inplace=True)
      )
      (branch2): Sequential(
        (0): Conv2d(232, 232, kernel_size=(1, 1), stride=(1, 1), bias=False)
        (1): BatchNorm2d(232, eps=1e-05, momentum=0.1, affine=True, track_running_stats=True)
        (2): ReLU(inplace=True)
        (3): Conv2d(232, 232, kernel_size=(3, 3), stride=(2, 2), padding=(1, 1), groups=232, bias=False)
        (4): BatchNorm2d(232, eps=1e-05, momentum=0.1, affine=True, track_running_stats=True)
        (5): Conv2d(232, 232, kernel_size=(1, 1), stride=(1, 1), bias=False)
        (6): BatchNorm2d(232, eps=1e-05, momentum=0.1, affine=True, track_running_stats=True)
        (7): ReLU(inplace=True)
      )
    )
    (1): InvertedResidual(
      (branch1): Sequential()
      (branch2): Sequential(
        (0): Conv2d(232, 232, kernel_size=(1, 1), stride=(1, 1), bias=False)
        (1): BatchNorm2d(232, eps=1e-05, momentum=0.1, affine=True, track_running_stats=True)
        (2): ReLU(inplace=True)
        (3): Conv2d(232, 232, kernel_size=(3, 3), stride=(1, 1), padding=(1, 1), groups=232, bias=False)
        (4): BatchNorm2d(232, eps=1e-05, momentum=0.1, affine=True, track_running_stats=True)
        (5): Conv2d(232, 232, kernel_size=(1, 1), stride=(1, 1), bias=False)
        (6): BatchNorm2d(232, eps=1e-05, momentum=0.1, affine=True, track_running_stats=True)
        (7): ReLU(inplace=True)
      )
    )
    (2): InvertedResidual(
      (branch1): Sequential()
      (branch2): Sequential(
        (0): Conv2d(232, 232, kernel_size=(1, 1), stride=(1, 1), bias=False)
        (1): BatchNorm2d(232, eps=1e-05, momentum=0.1, affine=True, track_running_stats=True)
        (2): ReLU(inplace=True)
        (3): Conv2d(232, 232, kernel_size=(3, 3), stride=(1, 1), padding=(1, 1), groups=232, bias=False)
        (4): BatchNorm2d(232, eps=1e-05, momentum=0.1, affine=True, track_running_stats=True)
        (5): Conv2d(232, 232, kernel_size=(1, 1), stride=(1, 1), bias=False)
        (6): BatchNorm2d(232, eps=1e-05, momentum=0.1, affine=True, track_running_stats=True)
        (7): ReLU(inplace=True)
      )
    )
    (3): InvertedResidual(
      (branch1): Sequential()
      (branch2): Sequential(
        (0): Conv2d(232, 232, kernel_size=(1, 1), stride=(1, 1), bias=False)
        (1): BatchNorm2d(232, eps=1e-05, momentum=0.1, affine=True, track_running_stats=True)
        (2): ReLU(inplace=True)
        (3): Conv2d(232, 232, kernel_size=(3, 3), stride=(1, 1), padding=(1, 1), groups=232, bias=False)
        (4): BatchNorm2d(232, eps=1e-05, momentum=0.1, affine=True, track_running_stats=True)
        (5): Conv2d(232, 232, kernel_size=(1, 1), stride=(1, 1), bias=False)
        (6): BatchNorm2d(232, eps=1e-05, momentum=0.1, affine=True, track_running_stats=True)
        (7): ReLU(inplace=True)
      )
    )
  )
  (conv2): Sequential(
    (0): Conv2d(464, 64, kernel_size=(1, 1), stride=(1, 1), bias=False)
    (1): BatchNorm2d(64, eps=1e-05, momentum=0.1, affine=True, track_running_stats=True)
    (2): ReLU(inplace=True)
  )
  (deconv_layers): Sequential(
    (0): ConvTranspose2d(64, 256, kernel_size=(4, 4), stride=(2, 2), padding=(1, 1), bias=False)
    (1): BatchNorm2d(256, eps=1e-05, momentum=0.1, affine=True, track_running_stats=True)
    (2): ReLU(inplace=True)
    (3): ConvTranspose2d(256, 256, kernel_size=(4, 4), stride=(2, 2), padding=(1, 1), bias=False)
    (4): BatchNorm2d(256, eps=1e-05, momentum=0.1, affine=True, track_running_stats=True)
    (5): ReLU(inplace=True)
    (6): ConvTranspose2d(256, 256, kernel_size=(4, 4), stride=(2, 2), padding=(1, 1), bias=False)
    (7): BatchNorm2d(256, eps=1e-05, momentum=0.1, affine=True, track_running_stats=True)
    (8): ReLU(inplace=True)
  )
  (final_layer): Conv2d(256, 17, kernel_size=(1, 1), stride=(1, 1))
)
loading annotations into memory...
Done (t=19.38s)
creating index...
index created!
loading annotations into memory...
Done (t=0.67s)
creating index...
index created!
/home/ytwang/anaconda3/lib/python3.8/site-packages/torch/optim/lr_scheduler.py:131: UserWarning: Detected call of `lr_scheduler.step()` before `optimizer.step()`. In PyTorch 1.1.0 and later, you should call them in the opposite order: `optimizer.step()` before `lr_scheduler.step()`.  Failure to do this will result in PyTorch skipping the first value of the learning rate schedule. See more details at https://pytorch.org/docs/stable/optim.html#how-to-adjust-learning-rate
…
