…
=> classes: ['__background__', 'person']
=> num_images: 118287
=> load 149813 samples
=> classes: ['__background__', 'person']
=> num_images: 5000
=> load 6352 samples
=> creating output/coco_quan/mobile_quant_relu_w8a8_bnfuse0
=> creating log/coco_quan/mobile_quant_relu_w8a8_bnfuse0_2021-04-20-15-41
Using CUDA device0 _CudaDeviceProperties(name='Tesla V100-PCIE-32GB', total_memory=32510MB)

Load model weight from output/coco/256x192_d256x3_adam_lr1e-3_mobile8_relu/final_state.pth.tar
*******************ori_model*******************
 PoseMobileNet(
  (features): Sequential(
    (0): Sequential(
      (0): Conv2d(3, 16, kernel_size=(3, 3), stride=(2, 2), padding=(1, 1), bias=False)
      (1): BatchNorm2d(16, eps=1e-05, momentum=0.1, affine=True, track_running_stats=True)
      (2): ReLU(inplace=True)
    )
    (1): InvertedResidual(
      (conv): Sequential(
        (0): Conv2d(16, 16, kernel_size=(3, 3), stride=(1, 1), padding=(1, 1), groups=16, bias=False)
        (1): BatchNorm2d(16, eps=1e-05, momentum=0.1, affine=True, track_running_stats=True)
        (2): ReLU(inplace=True)
        (3): Conv2d(16, 8, kernel_size=(1, 1), stride=(1, 1), bias=False)
        (4): BatchNorm2d(8, eps=1e-05, momentum=0.1, affine=True, track_running_stats=True)
      )
    )
    (2): InvertedResidual(
      (conv): Sequential(
        (0): Conv2d(8, 48, kernel_size=(1, 1), stride=(1, 1), bias=False)
        (1): BatchNorm2d(48, eps=1e-05, momentum=0.1, affine=True, track_running_stats=True)
        (2): ReLU(inplace=True)
        (3): Conv2d(48, 48, kernel_size=(3, 3), stride=(2, 2), padding=(1, 1), groups=48, bias=False)
        (4): BatchNorm2d(48, eps=1e-05, momentum=0.1, affine=True, track_running_stats=True)
        (5): ReLU(inplace=True)
        (6): Conv2d(48, 16, kernel_size=(1, 1), stride=(1, 1), bias=False)
        (7): BatchNorm2d(16, eps=1e-05, momentum=0.1, affine=True, track_running_stats=True)
      )
    )
    (3): InvertedResidual(
      (conv): Sequential(
        (0): Conv2d(16, 96, kernel_size=(1, 1), stride=(1, 1), bias=False)
        (1): BatchNorm2d(96, eps=1e-05, momentum=0.1, affine=True, track_running_stats=True)
        (2): ReLU(inplace=True)
        (3): Conv2d(96, 96, kernel_size=(3, 3), stride=(1, 1), padding=(1, 1), groups=96, bias=False)
        (4): BatchNorm2d(96, eps=1e-05, momentum=0.1, affine=True, track_running_stats=True)
        (5): ReLU(inplace=True)
        (6): Conv2d(96, 16, kernel_size=(1, 1), stride=(1, 1), bias=False)
        (7): BatchNorm2d(16, eps=1e-05, momentum=0.1, affine=True, track_running_stats=True)
      )
    )
    (4): InvertedResidual(
      (conv): Sequential(
        (0): Conv2d(16, 96, kernel_size=(1, 1), stride=(1, 1), bias=False)
        (1): BatchNorm2d(96, eps=1e-05, momentum=0.1, affine=True, track_running_stats=True)
        (2): ReLU(inplace=True)
        (3): Conv2d(96, 96, kernel_size=(3, 3), stride=(2, 2), padding=(1, 1), groups=96, bias=False)
        (4): BatchNorm2d(96, eps=1e-05, momentum=0.1, affine=True, track_running_stats=True)
        (5): ReLU(inplace=True)
        (6): Conv2d(96, 16, kernel_size=(1, 1), stride=(1, 1), bias=False)
        (7): BatchNorm2d(16, eps=1e-05, momentum=0.1, affine=True, track_running_stats=True)
      )
    )
    (5): InvertedResidual(
      (conv): Sequential(
        (0): Conv2d(16, 96, kernel_size=(1, 1), stride=(1, 1), bias=False)
        (1): BatchNorm2d(96, eps=1e-05, momentum=0.1, affine=True, track_running_stats=True)
        (2): ReLU(inplace=True)
        (3): Conv2d(96, 96, kernel_size=(3, 3), stride=(1, 1), padding=(1, 1), groups=96, bias=False)
        (4): BatchNorm2d(96, eps=1e-05, momentum=0.1, affine=True, track_running_stats=True)
        (5): ReLU(inplace=True)
        (6): Conv2d(96, 16, kernel_size=(1, 1), stride=(1, 1), bias=False)
        (7): BatchNorm2d(16, eps=1e-05, momentum=0.1, affine=True, track_running_stats=True)
      )
    )
    (6): InvertedResidual(
      (conv): Sequential(
        (0): Conv2d(16, 96, kernel_size=(1, 1), stride=(1, 1), bias=False)
        (1): BatchNorm2d(96, eps=1e-05, momentum=0.1, affine=True, track_running_stats=True)
        (2): ReLU(inplace=True)
        (3): Conv2d(96, 96, kernel_size=(3, 3), stride=(1, 1), padding=(1, 1), groups=96, bias=False)
        (4): BatchNorm2d(96, eps=1e-05, momentum=0.1, affine=True, track_running_stats=True)
        (5): ReLU(inplace=True)
        (6): Conv2d(96, 16, kernel_size=(1, 1), stride=(1, 1), bias=False)
        (7): BatchNorm2d(16, eps=1e-05, momentum=0.1, affine=True, track_running_stats=True)
      )
    )
    (7): InvertedResidual(
      (conv): Sequential(
        (0): Conv2d(16, 96, kernel_size=(1, 1), stride=(1, 1), bias=False)
        (1): BatchNorm2d(96, eps=1e-05, momentum=0.1, affine=True, track_running_stats=True)
        (2): ReLU(inplace=True)
        (3): Conv2d(96, 96, kernel_size=(3, 3), stride=(2, 2), padding=(1, 1), groups=96, bias=False)
        (4): BatchNorm2d(96, eps=1e-05, momentum=0.1, affine=True, track_running_stats=True)
        (5): ReLU(inplace=True)
        (6): Conv2d(96, 32, kernel_size=(1, 1), stride=(1, 1), bias=False)
        (7): BatchNorm2d(32, eps=1e-05, momentum=0.1, affine=True, track_running_stats=True)
      )
    )
    (8): InvertedResidual(
      (conv): Sequential(
        (0): Conv2d(32, 192, kernel_size=(1, 1), stride=(1, 1), bias=False)
        (1): BatchNorm2d(192, eps=1e-05, momentum=0.1, affine=True, track_running_stats=True)
        (2): ReLU(inplace=True)
        (3): Conv2d(192, 192, kernel_size=(3, 3), stride=(1, 1), padding=(1, 1), groups=192, bias=False)
        (4): BatchNorm2d(192, eps=1e-05, momentum=0.1, affine=True, track_running_stats=True)
        (5): ReLU(inplace=True)
        (6): Conv2d(192, 32, kernel_size=(1, 1), stride=(1, 1), bias=False)
        (7): BatchNorm2d(32, eps=1e-05, momentum=0.1, affine=True, track_running_stats=True)
      )
    )
    (9): InvertedResidual(
      (conv): Sequential(
        (0): Conv2d(32, 192, kernel_size=(1, 1), stride=(1, 1), bias=False)
        (1): BatchNorm2d(192, eps=1e-05, momentum=0.1, affine=True, track_running_stats=True)
        (2): ReLU(inplace=True)
        (3): Conv2d(192, 192, kernel_size=(3, 3), stride=(1, 1), padding=(1, 1), groups=192, bias=False)
        (4): BatchNorm2d(192, eps=1e-05, momentum=0.1, affine=True, track_running_stats=True)
        (5): ReLU(inplace=True)
        (6): Conv2d(192, 32, kernel_size=(1, 1), stride=(1, 1), bias=False)
        (7): BatchNorm2d(32, eps=1e-05, momentum=0.1, affine=True, track_running_stats=True)
      )
    )
    (10): InvertedResidual(
      (conv): Sequential(
        (0): Conv2d(32, 192, kernel_size=(1, 1), stride=(1, 1), bias=False)
        (1): BatchNorm2d(192, eps=1e-05, momentum=0.1, affine=True, track_running_stats=True)
        (2): ReLU(inplace=True)
        (3): Conv2d(192, 192, kernel_size=(3, 3), stride=(1, 1), padding=(1, 1), groups=192, bias=False)
        (4): BatchNorm2d(192, eps=1e-05, momentum=0.1, affine=True, track_running_stats=True)
        (5): ReLU(inplace=True)
        (6): Conv2d(192, 32, kernel_size=(1, 1), stride=(1, 1), bias=False)
        (7): BatchNorm2d(32, eps=1e-05, momentum=0.1, affine=True, track_running_stats=True)
      )
    )
    (11): InvertedResidual(
      (conv): Sequential(
        (0): Conv2d(32, 192, kernel_size=(1, 1), stride=(1, 1), bias=False)
        (1): BatchNorm2d(192, eps=1e-05, momentum=0.1, affine=True, track_running_stats=True)
        (2): ReLU(inplace=True)
        (3): Conv2d(192, 192, kernel_size=(3, 3), stride=(1, 1), padding=(1, 1), groups=192, bias=False)
        (4): BatchNorm2d(192, eps=1e-05, momentum=0.1, affine=True, track_running_stats=True)
        (5): ReLU(inplace=True)
        (6): Conv2d(192, 48, kernel_size=(1, 1), stride=(1, 1), bias=False)
        (7): BatchNorm2d(48, eps=1e-05, momentum=0.1, affine=True, track_running_stats=True)
      )
    )
    (12): InvertedResidual(
      (conv): Sequential(
        (0): Conv2d(48, 288, kernel_size=(1, 1), stride=(1, 1), bias=False)
        (1): BatchNorm2d(288, eps=1e-05, momentum=0.1, affine=True, track_running_stats=True)
        (2): ReLU(inplace=True)
        (3): Conv2d(288, 288, kernel_size=(3, 3), stride=(1, 1), padding=(1, 1), groups=288, bias=False)
        (4): BatchNorm2d(288, eps=1e-05, momentum=0.1, affine=True, track_running_stats=True)
        (5): ReLU(inplace=True)
        (6): Conv2d(288, 48, kernel_size=(1, 1), stride=(1, 1), bias=False)
        (7): BatchNorm2d(48, eps=1e-05, momentum=0.1, affine=True, track_running_stats=True)
      )
    )
    (13): InvertedResidual(
      (conv): Sequential(
        (0): Conv2d(48, 288, kernel_size=(1, 1), stride=(1, 1), bias=False)
        (1): BatchNorm2d(288, eps=1e-05, momentum=0.1, affine=True, track_running_stats=True)
        (2): ReLU(inplace=True)
        (3): Conv2d(288, 288, kernel_size=(3, 3), stride=(1, 1), padding=(1, 1), groups=288, bias=False)
        (4): BatchNorm2d(288, eps=1e-05, momentum=0.1, affine=True, track_running_stats=True)
        (5): ReLU(inplace=True)
        (6): Conv2d(288, 48, kernel_size=(1, 1), stride=(1, 1), bias=False)
        (7): BatchNorm2d(48, eps=1e-05, momentum=0.1, affine=True, track_running_stats=True)
      )
    )
    (14): InvertedResidual(
      (conv): Sequential(
        (0): Conv2d(48, 288, kernel_size=(1, 1), stride=(1, 1), bias=False)
        (1): BatchNorm2d(288, eps=1e-05, momentum=0.1, affine=True, track_running_stats=True)
        (2): ReLU(inplace=True)
        (3): Conv2d(288, 288, kernel_size=(3, 3), stride=(2, 2), padding=(1, 1), groups=288, bias=False)
        (4): BatchNorm2d(288, eps=1e-05, momentum=0.1, affine=True, track_running_stats=True)
        (5): ReLU(inplace=True)
        (6): Conv2d(288, 80, kernel_size=(1, 1), stride=(1, 1), bias=False)
        (7): BatchNorm2d(80, eps=1e-05, momentum=0.1, affine=True, track_running_stats=True)
      )
    )
    (15): InvertedResidual(
      (conv): Sequential(
        (0): Conv2d(80, 480, kernel_size=(1, 1), stride=(1, 1), bias=False)
        (1): BatchNorm2d(480, eps=1e-05, momentum=0.1, affine=True, track_running_stats=True)
        (2): ReLU(inplace=True)
        (3): Conv2d(480, 480, kernel_size=(3, 3), stride=(1, 1), padding=(1, 1), groups=480, bias=False)
        (4): BatchNorm2d(480, eps=1e-05, momentum=0.1, affine=True, track_running_stats=True)
        (5): ReLU(inplace=True)
        (6): Conv2d(480, 80, kernel_size=(1, 1), stride=(1, 1), bias=False)
        (7): BatchNorm2d(80, eps=1e-05, momentum=0.1, affine=True, track_running_stats=True)
      )
    )
    (16): InvertedResidual(
      (conv): Sequential(
        (0): Conv2d(80, 480, kernel_size=(1, 1), stride=(1, 1), bias=False)
        (1): BatchNorm2d(480, eps=1e-05, momentum=0.1, affine=True, track_running_stats=True)
        (2): ReLU(inplace=True)
        (3): Conv2d(480, 480, kernel_size=(3, 3), stride=(1, 1), padding=(1, 1), groups=480, bias=False)
        (4): BatchNorm2d(480, eps=1e-05, momentum=0.1, affine=True, track_running_stats=True)
        (5): ReLU(inplace=True)
        (6): Conv2d(480, 80, kernel_size=(1, 1), stride=(1, 1), bias=False)
        (7): BatchNorm2d(80, eps=1e-05, momentum=0.1, affine=True, track_running_stats=True)
      )
    )
    (17): InvertedResidual(
      (conv): Sequential(
        (0): Conv2d(80, 480, kernel_size=(1, 1), stride=(1, 1), bias=False)
        (1): BatchNorm2d(480, eps=1e-05, momentum=0.1, affine=True, track_running_stats=True)
        (2): ReLU(inplace=True)
        (3): Conv2d(480, 480, kernel_size=(3, 3), stride=(1, 1), padding=(1, 1), groups=480, bias=False)
        (4): BatchNorm2d(480, eps=1e-05, momentum=0.1, affine=True, track_running_stats=True)
        (5): ReLU(inplace=True)
        (6): Conv2d(480, 160, kernel_size=(1, 1), stride=(1, 1), bias=False)
        (7): BatchNorm2d(160, eps=1e-05, momentum=0.1, affine=True, track_running_stats=True)
      )
    )
  )
  (conv2): Sequential(
    (0): Conv2d(160, 128, kernel_size=(1, 1), stride=(1, 1), bias=False)
    (1): BatchNorm2d(128, eps=1e-05, momentum=0.1, affine=True, track_running_stats=True)
    (2): ReLU(inplace=True)
  )
  (deconv_layers): Sequential(
    (0): ConvTranspose2d(128, 128, kernel_size=(4, 4), stride=(2, 2), padding=(1, 1), groups=128, bias=False)
    (1): BatchNorm2d(128, eps=1e-05, momentum=0.1, affine=True, track_running_stats=True)
    (2): ReLU(inplace=True)
    (3): Conv2d(128, 128, kernel_size=(1, 1), stride=(1, 1), bias=False)
    (4): BatchNorm2d(128, eps=1e-05, momentum=0.1, affine=True, track_running_stats=True)
    (5): ReLU(inplace=True)
    (6): ConvTranspose2d(128, 128, kernel_size=(4, 4), stride=(2, 2), padding=(1, 1), groups=128, bias=False)
    (7): BatchNorm2d(128, eps=1e-05, momentum=0.1, affine=True, track_running_stats=True)
    (8): ReLU(inplace=True)
    (9): Conv2d(128, 128, kernel_size=(1, 1), stride=(1, 1), bias=False)
    (10): BatchNorm2d(128, eps=1e-05, momentum=0.1, affine=True, track_running_stats=True)
    (11): ReLU(inplace=True)
    (12): ConvTranspose2d(128, 128, kernel_size=(4, 4), stride=(2, 2), padding=(1, 1), groups=128, bias=False)
    (13): BatchNorm2d(128, eps=1e-05, momentum=0.1, affine=True, track_running_stats=True)
    (14): ReLU(inplace=True)
    (15): Conv2d(128, 128, kernel_size=(1, 1), stride=(1, 1), bias=False)
    (16): BatchNorm2d(128, eps=1e-05, momentum=0.1, affine=True, track_running_stats=True)
    (17): ReLU(inplace=True)
  )
  (final_layer): Conv2d(128, 17, kernel_size=(1, 1), stride=(1, 1), bias=False)
)
a_bits= 8 	w_bits= 8 	q_type= 0 	q_level= 0 	device= cpu 	weight_observer= 0 	bn_fuse= 0 	quant_inference= False

*******************quant_model*******************
 PoseMobileNet(
  (features): Sequential(
    (0): Sequential(
      (0): QuantConv2d(
        3, 16, kernel_size=(3, 3), stride=(2, 2), padding=(1, 1), bias=False
        (activation_quantizer): AsymmetricQuantizer(
          (observer): MovingAverageMinMaxObserver()
        )
        (weight_quantizer): SymmetricQuantizer(
          (observer): MinMaxObserver()
        )
      )
      (1): BatchNorm2d(16, eps=1e-05, momentum=0.1, affine=True, track_running_stats=True)
      (2): QuantReLU(
        inplace=True
        (activation_quantizer): AsymmetricQuantizer(
          (observer): MovingAverageMinMaxObserver()
        )
      )
    )
    (1): InvertedResidual(
      (conv): Sequential(
        (0): QuantConv2d(
          16, 16, kernel_size=(3, 3), stride=(1, 1), padding=(1, 1), groups=16, bias=False
          (activation_quantizer): AsymmetricQuantizer(
            (observer): MovingAverageMinMaxObserver()
          )
          (weight_quantizer): SymmetricQuantizer(
            (observer): MinMaxObserver()
          )
        )
        (1): BatchNorm2d(16, eps=1e-05, momentum=0.1, affine=True, track_running_stats=True)
        (2): QuantReLU(
          inplace=True
          (activation_quantizer): AsymmetricQuantizer(
            (observer): MovingAverageMinMaxObserver()
          )
        )
        (3): QuantConv2d(
          16, 8, kernel_size=(1, 1), stride=(1, 1), bias=False
          (activation_quantizer): AsymmetricQuantizer(
            (observer): MovingAverageMinMaxObserver()
          )
          (weight_quantizer): SymmetricQuantizer(
            (observer): MinMaxObserver()
          )
        )
        (4): BatchNorm2d(8, eps=1e-05, momentum=0.1, affine=True, track_running_stats=True)
      )
    )
    (2): InvertedResidual(
      (conv): Sequential(
        (0): QuantConv2d(
          8, 48, kernel_size=(1, 1), stride=(1, 1), bias=False
          (activation_quantizer): AsymmetricQuantizer(
            (observer): MovingAverageMinMaxObserver()
          )
          (weight_quantizer): SymmetricQuantizer(
            (observer): MinMaxObserver()
          )
        )
        (1): BatchNorm2d(48, eps=1e-05, momentum=0.1, affine=True, track_running_stats=True)
        (2): QuantReLU(
          inplace=True
          (activation_quantizer): AsymmetricQuantizer(
            (observer): MovingAverageMinMaxObserver()
          )
        )
        (3): QuantConv2d(
          48, 48, kernel_size=(3, 3), stride=(2, 2), padding=(1, 1), groups=48, bias=False
          (activation_quantizer): AsymmetricQuantizer(
            (observer): MovingAverageMinMaxObserver()
          )
          (weight_quantizer): SymmetricQuantizer(
            (observer): MinMaxObserver()
          )
        )
        (4): BatchNorm2d(48, eps=1e-05, momentum=0.1, affine=True, track_running_stats=True)
        (5): QuantReLU(
          inplace=True
          (activation_quantizer): AsymmetricQuantizer(
            (observer): MovingAverageMinMaxObserver()
          )
        )
        (6): QuantConv2d(
          48, 16, kernel_size=(1, 1), stride=(1, 1), bias=False
          (activation_quantizer): AsymmetricQuantizer(
            (observer): MovingAverageMinMaxObserver()
          )
          (weight_quantizer): SymmetricQuantizer(
            (observer): MinMaxObserver()
          )
        )
        (7): BatchNorm2d(16, eps=1e-05, momentum=0.1, affine=True, track_running_stats=True)
      )
    )
    (3): InvertedResidual(
      (conv): Sequential(
        (0): QuantConv2d(
          16, 96, kernel_size=(1, 1), stride=(1, 1), bias=False
          (activation_quantizer): AsymmetricQuantizer(
            (observer): MovingAverageMinMaxObserver()
          )
          (weight_quantizer): SymmetricQuantizer(
            (observer): MinMaxObserver()
          )
        )
        (1): BatchNorm2d(96, eps=1e-05, momentum=0.1, affine=True, track_running_stats=True)
        (2): QuantReLU(
          inplace=True
          (activation_quantizer): AsymmetricQuantizer(
            (observer): MovingAverageMinMaxObserver()
          )
        )
        (3): QuantConv2d(
          96, 96, kernel_size=(3, 3), stride=(1, 1), padding=(1, 1), groups=96, bias=False
          (activation_quantizer): AsymmetricQuantizer(
            (observer): MovingAverageMinMaxObserver()
          )
          (weight_quantizer): SymmetricQuantizer(
            (observer): MinMaxObserver()
          )
        )
        (4): BatchNorm2d(96, eps=1e-05, momentum=0.1, affine=True, track_running_stats=True)
        (5): QuantReLU(
          inplace=True
          (activation_quantizer): AsymmetricQuantizer(
            (observer): MovingAverageMinMaxObserver()
          )
        )
        (6): QuantConv2d(
          96, 16, kernel_size=(1, 1), stride=(1, 1), bias=False
          (activation_quantizer): AsymmetricQuantizer(
            (observer): MovingAverageMinMaxObserver()
          )
          (weight_quantizer): SymmetricQuantizer(
            (observer): MinMaxObserver()
          )
        )
        (7): BatchNorm2d(16, eps=1e-05, momentum=0.1, affine=True, track_running_stats=True)
      )
    )
    (4): InvertedResidual(
      (conv): Sequential(
        (0): QuantConv2d(
          16, 96, kernel_size=(1, 1), stride=(1, 1), bias=False
          (activation_quantizer): AsymmetricQuantizer(
            (observer): MovingAverageMinMaxObserver()
          )
          (weight_quantizer): SymmetricQuantizer(
            (observer): MinMaxObserver()
          )
        )
        (1): BatchNorm2d(96, eps=1e-05, momentum=0.1, affine=True, track_running_stats=True)
        (2): QuantReLU(
          inplace=True
          (activation_quantizer): AsymmetricQuantizer(
            (observer): MovingAverageMinMaxObserver()
          )
        )
        (3): QuantConv2d(
          96, 96, kernel_size=(3, 3), stride=(2, 2), padding=(1, 1), groups=96, bias=False
          (activation_quantizer): AsymmetricQuantizer(
            (observer): MovingAverageMinMaxObserver()
          )
          (weight_quantizer): SymmetricQuantizer(
            (observer): MinMaxObserver()
          )
        )
        (4): BatchNorm2d(96, eps=1e-05, momentum=0.1, affine=True, track_running_stats=True)
        (5): QuantReLU(
          inplace=True
          (activation_quantizer): AsymmetricQuantizer(
            (observer): MovingAverageMinMaxObserver()
          )
        )
        (6): QuantConv2d(
          96, 16, kernel_size=(1, 1), stride=(1, 1), bias=False
          (activation_quantizer): AsymmetricQuantizer(
            (observer): MovingAverageMinMaxObserver()
          )
          (weight_quantizer): SymmetricQuantizer(
            (observer): MinMaxObserver()
          )
        )
        (7): BatchNorm2d(16, eps=1e-05, momentum=0.1, affine=True, track_running_stats=True)
      )
    )
    (5): InvertedResidual(
      (conv): Sequential(
        (0): QuantConv2d(
          16, 96, kernel_size=(1, 1), stride=(1, 1), bias=False
          (activation_quantizer): AsymmetricQuantizer(
            (observer): MovingAverageMinMaxObserver()
          )
          (weight_quantizer): SymmetricQuantizer(
            (observer): MinMaxObserver()
          )
        )
        (1): BatchNorm2d(96, eps=1e-05, momentum=0.1, affine=True, track_running_stats=True)
        (2): QuantReLU(
          inplace=True
          (activation_quantizer): AsymmetricQuantizer(
            (observer): MovingAverageMinMaxObserver()
          )
        )
        (3): QuantConv2d(
          96, 96, kernel_size=(3, 3), stride=(1, 1), padding=(1, 1), groups=96, bias=False
          (activation_quantizer): AsymmetricQuantizer(
            (observer): MovingAverageMinMaxObserver()
          )
          (weight_quantizer): SymmetricQuantizer(
            (observer): MinMaxObserver()
          )
        )
        (4): BatchNorm2d(96, eps=1e-05, momentum=0.1, affine=True, track_running_stats=True)
        (5): QuantReLU(
          inplace=True
          (activation_quantizer): AsymmetricQuantizer(
            (observer): MovingAverageMinMaxObserver()
          )
        )
        (6): QuantConv2d(
          96, 16, kernel_size=(1, 1), stride=(1, 1), bias=False
          (activation_quantizer): AsymmetricQuantizer(
            (observer): MovingAverageMinMaxObserver()
          )
          (weight_quantizer): SymmetricQuantizer(
            (observer): MinMaxObserver()
          )
        )
        (7): BatchNorm2d(16, eps=1e-05, momentum=0.1, affine=True, track_running_stats=True)
      )
    )
    (6): InvertedResidual(
      (conv): Sequential(
        (0): QuantConv2d(
          16, 96, kernel_size=(1, 1), stride=(1, 1), bias=False
          (activation_quantizer): AsymmetricQuantizer(
            (observer): MovingAverageMinMaxObserver()
          )
          (weight_quantizer): SymmetricQuantizer(
            (observer): MinMaxObserver()
          )
        )
        (1): BatchNorm2d(96, eps=1e-05, momentum=0.1, affine=True, track_running_stats=True)
        (2): QuantReLU(
          inplace=True
          (activation_quantizer): AsymmetricQuantizer(
            (observer): MovingAverageMinMaxObserver()
          )
        )
        (3): QuantConv2d(
          96, 96, kernel_size=(3, 3), stride=(1, 1), padding=(1, 1), groups=96, bias=False
          (activation_quantizer): AsymmetricQuantizer(
            (observer): MovingAverageMinMaxObserver()
          )
          (weight_quantizer): SymmetricQuantizer(
            (observer): MinMaxObserver()
          )
        )
        (4): BatchNorm2d(96, eps=1e-05, momentum=0.1, affine=True, track_running_stats=True)
        (5): QuantReLU(
          inplace=True
          (activation_quantizer): AsymmetricQuantizer(
            (observer): MovingAverageMinMaxObserver()
          )
        )
        (6): QuantConv2d(
          96, 16, kernel_size=(1, 1), stride=(1, 1), bias=False
          (activation_quantizer): AsymmetricQuantizer(
            (observer): MovingAverageMinMaxObserver()
          )
          (weight_quantizer): SymmetricQuantizer(
            (observer): MinMaxObserver()
          )
        )
        (7): BatchNorm2d(16, eps=1e-05, momentum=0.1, affine=True, track_running_stats=True)
      )
    )
    (7): InvertedResidual(
      (conv): Sequential(
        (0): QuantConv2d(
          16, 96, kernel_size=(1, 1), stride=(1, 1), bias=False
          (activation_quantizer): AsymmetricQuantizer(
            (observer): MovingAverageMinMaxObserver()
          )
          (weight_quantizer): SymmetricQuantizer(
            (observer): MinMaxObserver()
          )
        )
        (1): BatchNorm2d(96, eps=1e-05, momentum=0.1, affine=True, track_running_stats=True)
        (2): QuantReLU(
          inplace=True
          (activation_quantizer): AsymmetricQuantizer(
            (observer): MovingAverageMinMaxObserver()
          )
        )
        (3): QuantConv2d(
          96, 96, kernel_size=(3, 3), stride=(2, 2), padding=(1, 1), groups=96, bias=False
          (activation_quantizer): AsymmetricQuantizer(
            (observer): MovingAverageMinMaxObserver()
          )
          (weight_quantizer): SymmetricQuantizer(
            (observer): MinMaxObserver()
          )
        )
        (4): BatchNorm2d(96, eps=1e-05, momentum=0.1, affine=True, track_running_stats=True)
        (5): QuantReLU(
          inplace=True
          (activation_quantizer): AsymmetricQuantizer(
            (observer): MovingAverageMinMaxObserver()
          )
        )
        (6): QuantConv2d(
          96, 32, kernel_size=(1, 1), stride=(1, 1), bias=False
          (activation_quantizer): AsymmetricQuantizer(
            (observer): MovingAverageMinMaxObserver()
          )
          (weight_quantizer): SymmetricQuantizer(
            (observer): MinMaxObserver()
          )
        )
        (7): BatchNorm2d(32, eps=1e-05, momentum=0.1, affine=True, track_running_stats=True)
      )
    )
    (8): InvertedResidual(
      (conv): Sequential(
        (0): QuantConv2d(
          32, 192, kernel_size=(1, 1), stride=(1, 1), bias=False
          (activation_quantizer): AsymmetricQuantizer(
            (observer): MovingAverageMinMaxObserver()
          )
          (weight_quantizer): SymmetricQuantizer(
            (observer): MinMaxObserver()
          )
        )
        (1): BatchNorm2d(192, eps=1e-05, momentum=0.1, affine=True, track_running_stats=True)
        (2): QuantReLU(
          inplace=True
          (activation_quantizer): AsymmetricQuantizer(
            (observer): MovingAverageMinMaxObserver()
          )
        )
        (3): QuantConv2d(
          192, 192, kernel_size=(3, 3), stride=(1, 1), padding=(1, 1), groups=192, bias=False
          (activation_quantizer): AsymmetricQuantizer(
            (observer): MovingAverageMinMaxObserver()
          )
          (weight_quantizer): SymmetricQuantizer(
            (observer): MinMaxObserver()
          )
        )
        (4): BatchNorm2d(192, eps=1e-05, momentum=0.1, affine=True, track_running_stats=True)
        (5): QuantReLU(
          inplace=True
          (activation_quantizer): AsymmetricQuantizer(
            (observer): MovingAverageMinMaxObserver()
          )
        )
        (6): QuantConv2d(
          192, 32, kernel_size=(1, 1), stride=(1, 1), bias=False
          (activation_quantizer): AsymmetricQuantizer(
            (observer): MovingAverageMinMaxObserver()
          )
          (weight_quantizer): SymmetricQuantizer(
            (observer): MinMaxObserver()
          )
        )
        (7): BatchNorm2d(32, eps=1e-05, momentum=0.1, affine=True, track_running_stats=True)
      )
    )
    (9): InvertedResidual(
      (conv): Sequential(
        (0): QuantConv2d(
          32, 192, kernel_size=(1, 1), stride=(1, 1), bias=False
          (activation_quantizer): AsymmetricQuantizer(
            (observer): MovingAverageMinMaxObserver()
          )
          (weight_quantizer): SymmetricQuantizer(
            (observer): MinMaxObserver()
          )
        )
        (1): BatchNorm2d(192, eps=1e-05, momentum=0.1, affine=True, track_running_stats=True)
        (2): QuantReLU(
          inplace=True
          (activation_quantizer): AsymmetricQuantizer(
            (observer): MovingAverageMinMaxObserver()
          )
        )
        (3): QuantConv2d(
          192, 192, kernel_size=(3, 3), stride=(1, 1), padding=(1, 1), groups=192, bias=False
          (activation_quantizer): AsymmetricQuantizer(
            (observer): MovingAverageMinMaxObserver()
          )
          (weight_quantizer): SymmetricQuantizer(
            (observer): MinMaxObserver()
          )
        )
        (4): BatchNorm2d(192, eps=1e-05, momentum=0.1, affine=True, track_running_stats=True)
        (5): QuantReLU(
          inplace=True
          (activation_quantizer): AsymmetricQuantizer(
            (observer): MovingAverageMinMaxObserver()
          )
        )
        (6): QuantConv2d(
          192, 32, kernel_size=(1, 1), stride=(1, 1), bias=False
          (activation_quantizer): AsymmetricQuantizer(
            (observer): MovingAverageMinMaxObserver()
          )
          (weight_quantizer): SymmetricQuantizer(
            (observer): MinMaxObserver()
          )
        )
        (7): BatchNorm2d(32, eps=1e-05, momentum=0.1, affine=True, track_running_stats=True)
      )
    )
    (10): InvertedResidual(
      (conv): Sequential(
        (0): QuantConv2d(
          32, 192, kernel_size=(1, 1), stride=(1, 1), bias=False
          (activation_quantizer): AsymmetricQuantizer(
            (observer): MovingAverageMinMaxObserver()
          )
          (weight_quantizer): SymmetricQuantizer(
            (observer): MinMaxObserver()
          )
        )
        (1): BatchNorm2d(192, eps=1e-05, momentum=0.1, affine=True, track_running_stats=True)
        (2): QuantReLU(
          inplace=True
          (activation_quantizer): AsymmetricQuantizer(
            (observer): MovingAverageMinMaxObserver()
          )
        )
        (3): QuantConv2d(
          192, 192, kernel_size=(3, 3), stride=(1, 1), padding=(1, 1), groups=192, bias=False
          (activation_quantizer): AsymmetricQuantizer(
            (observer): MovingAverageMinMaxObserver()
          )
          (weight_quantizer): SymmetricQuantizer(
            (observer): MinMaxObserver()
          )
        )
        (4): BatchNorm2d(192, eps=1e-05, momentum=0.1, affine=True, track_running_stats=True)
        (5): QuantReLU(
          inplace=True
          (activation_quantizer): AsymmetricQuantizer(
            (observer): MovingAverageMinMaxObserver()
          )
        )
        (6): QuantConv2d(
          192, 32, kernel_size=(1, 1), stride=(1, 1), bias=False
          (activation_quantizer): AsymmetricQuantizer(
            (observer): MovingAverageMinMaxObserver()
          )
          (weight_quantizer): SymmetricQuantizer(
            (observer): MinMaxObserver()
          )
        )
        (7): BatchNorm2d(32, eps=1e-05, momentum=0.1, affine=True, track_running_stats=True)
      )
    )
    (11): InvertedResidual(
      (conv): Sequential(
        (0): QuantConv2d(
          32, 192, kernel_size=(1, 1), stride=(1, 1), bias=False
          (activation_quantizer): AsymmetricQuantizer(
            (observer): MovingAverageMinMaxObserver()
          )
          (weight_quantizer): SymmetricQuantizer(
            (observer): MinMaxObserver()
          )
        )
        (1): BatchNorm2d(192, eps=1e-05, momentum=0.1, affine=True, track_running_stats=True)
        (2): QuantReLU(
          inplace=True
          (activation_quantizer): AsymmetricQuantizer(
            (observer): MovingAverageMinMaxObserver()
          )
        )
        (3): QuantConv2d(
          192, 192, kernel_size=(3, 3), stride=(1, 1), padding=(1, 1), groups=192, bias=False
          (activation_quantizer): AsymmetricQuantizer(
            (observer): MovingAverageMinMaxObserver()
          )
          (weight_quantizer): SymmetricQuantizer(
            (observer): MinMaxObserver()
          )
        )
        (4): BatchNorm2d(192, eps=1e-05, momentum=0.1, affine=True, track_running_stats=True)
        (5): QuantReLU(
          inplace=True
          (activation_quantizer): AsymmetricQuantizer(
            (observer): MovingAverageMinMaxObserver()
          )
        )
        (6): QuantConv2d(
          192, 48, kernel_size=(1, 1), stride=(1, 1), bias=False
          (activation_quantizer): AsymmetricQuantizer(
            (observer): MovingAverageMinMaxObserver()
          )
          (weight_quantizer): SymmetricQuantizer(
            (observer): MinMaxObserver()
          )
        )
        (7): BatchNorm2d(48, eps=1e-05, momentum=0.1, affine=True, track_running_stats=True)
      )
    )
    (12): InvertedResidual(
      (conv): Sequential(
        (0): QuantConv2d(
          48, 288, kernel_size=(1, 1), stride=(1, 1), bias=False
          (activation_quantizer): AsymmetricQuantizer(
            (observer): MovingAverageMinMaxObserver()
          )
          (weight_quantizer): SymmetricQuantizer(
            (observer): MinMaxObserver()
          )
        )
        (1): BatchNorm2d(288, eps=1e-05, momentum=0.1, affine=True, track_running_stats=True)
        (2): QuantReLU(
          inplace=True
          (activation_quantizer): AsymmetricQuantizer(
            (observer): MovingAverageMinMaxObserver()
          )
        )
        (3): QuantConv2d(
          288, 288, kernel_size=(3, 3), stride=(1, 1), padding=(1, 1), groups=288, bias=False
          (activation_quantizer): AsymmetricQuantizer(
            (observer): MovingAverageMinMaxObserver()
          )
          (weight_quantizer): SymmetricQuantizer(
            (observer): MinMaxObserver()
          )
        )
        (4): BatchNorm2d(288, eps=1e-05, momentum=0.1, affine=True, track_running_stats=True)
        (5): QuantReLU(
          inplace=True
          (activation_quantizer): AsymmetricQuantizer(
            (observer): MovingAverageMinMaxObserver()
          )
        )
        (6): QuantConv2d(
          288, 48, kernel_size=(1, 1), stride=(1, 1), bias=False
          (activation_quantizer): AsymmetricQuantizer(
            (observer): MovingAverageMinMaxObserver()
          )
          (weight_quantizer): SymmetricQuantizer(
            (observer): MinMaxObserver()
          )
        )
        (7): BatchNorm2d(48, eps=1e-05, momentum=0.1, affine=True, track_running_stats=True)
      )
    )
    (13): InvertedResidual(
      (conv): Sequential(
        (0): QuantConv2d(
          48, 288, kernel_size=(1, 1), stride=(1, 1), bias=False
          (activation_quantizer): AsymmetricQuantizer(
            (observer): MovingAverageMinMaxObserver()
          )
          (weight_quantizer): SymmetricQuantizer(
            (observer): MinMaxObserver()
          )
        )
        (1): BatchNorm2d(288, eps=1e-05, momentum=0.1, affine=True, track_running_stats=True)
        (2): QuantReLU(
          inplace=True
          (activation_quantizer): AsymmetricQuantizer(
            (observer): MovingAverageMinMaxObserver()
          )
        )
        (3): QuantConv2d(
          288, 288, kernel_size=(3, 3), stride=(1, 1), padding=(1, 1), groups=288, bias=False
          (activation_quantizer): AsymmetricQuantizer(
            (observer): MovingAverageMinMaxObserver()
          )
          (weight_quantizer): SymmetricQuantizer(
            (observer): MinMaxObserver()
          )
        )
        (4): BatchNorm2d(288, eps=1e-05, momentum=0.1, affine=True, track_running_stats=True)
        (5): QuantReLU(
          inplace=True
          (activation_quantizer): AsymmetricQuantizer(
            (observer): MovingAverageMinMaxObserver()
          )
        )
        (6): QuantConv2d(
          288, 48, kernel_size=(1, 1), stride=(1, 1), bias=False
          (activation_quantizer): AsymmetricQuantizer(
            (observer): MovingAverageMinMaxObserver()
          )
          (weight_quantizer): SymmetricQuantizer(
            (observer): MinMaxObserver()
          )
        )
        (7): BatchNorm2d(48, eps=1e-05, momentum=0.1, affine=True, track_running_stats=True)
      )
    )
    (14): InvertedResidual(
      (conv): Sequential(
        (0): QuantConv2d(
          48, 288, kernel_size=(1, 1), stride=(1, 1), bias=False
          (activation_quantizer): AsymmetricQuantizer(
            (observer): MovingAverageMinMaxObserver()
          )
          (weight_quantizer): SymmetricQuantizer(
            (observer): MinMaxObserver()
          )
        )
        (1): BatchNorm2d(288, eps=1e-05, momentum=0.1, affine=True, track_running_stats=True)
        (2): QuantReLU(
          inplace=True
          (activation_quantizer): AsymmetricQuantizer(
            (observer): MovingAverageMinMaxObserver()
          )
        )
        (3): QuantConv2d(
          288, 288, kernel_size=(3, 3), stride=(2, 2), padding=(1, 1), groups=288, bias=False
          (activation_quantizer): AsymmetricQuantizer(
            (observer): MovingAverageMinMaxObserver()
          )
          (weight_quantizer): SymmetricQuantizer(
            (observer): MinMaxObserver()
          )
        )
        (4): BatchNorm2d(288, eps=1e-05, momentum=0.1, affine=True, track_running_stats=True)
        (5): QuantReLU(
          inplace=True
          (activation_quantizer): AsymmetricQuantizer(
            (observer): MovingAverageMinMaxObserver()
          )
        )
        (6): QuantConv2d(
          288, 80, kernel_size=(1, 1), stride=(1, 1), bias=False
          (activation_quantizer): AsymmetricQuantizer(
            (observer): MovingAverageMinMaxObserver()
          )
          (weight_quantizer): SymmetricQuantizer(
            (observer): MinMaxObserver()
          )
        )
        (7): BatchNorm2d(80, eps=1e-05, momentum=0.1, affine=True, track_running_stats=True)
      )
    )
    (15): InvertedResidual(
      (conv): Sequential(
        (0): QuantConv2d(
          80, 480, kernel_size=(1, 1), stride=(1, 1), bias=False
          (activation_quantizer): AsymmetricQuantizer(
            (observer): MovingAverageMinMaxObserver()
          )
          (weight_quantizer): SymmetricQuantizer(
            (observer): MinMaxObserver()
          )
        )
        (1): BatchNorm2d(480, eps=1e-05, momentum=0.1, affine=True, track_running_stats=True)
        (2): QuantReLU(
          inplace=True
          (activation_quantizer): AsymmetricQuantizer(
            (observer): MovingAverageMinMaxObserver()
          )
        )
        (3): QuantConv2d(
          480, 480, kernel_size=(3, 3), stride=(1, 1), padding=(1, 1), groups=480, bias=False
          (activation_quantizer): AsymmetricQuantizer(
            (observer): MovingAverageMinMaxObserver()
          )
          (weight_quantizer): SymmetricQuantizer(
            (observer): MinMaxObserver()
          )
        )
        (4): BatchNorm2d(480, eps=1e-05, momentum=0.1, affine=True, track_running_stats=True)
        (5): QuantReLU(
          inplace=True
          (activation_quantizer): AsymmetricQuantizer(
            (observer): MovingAverageMinMaxObserver()
          )
        )
        (6): QuantConv2d(
          480, 80, kernel_size=(1, 1), stride=(1, 1), bias=False
          (activation_quantizer): AsymmetricQuantizer(
            (observer): MovingAverageMinMaxObserver()
          )
          (weight_quantizer): SymmetricQuantizer(
            (observer): MinMaxObserver()
          )
        )
        (7): BatchNorm2d(80, eps=1e-05, momentum=0.1, affine=True, track_running_stats=True)
      )
    )
    (16): InvertedResidual(
      (conv): Sequential(
        (0): QuantConv2d(
          80, 480, kernel_size=(1, 1), stride=(1, 1), bias=False
          (activation_quantizer): AsymmetricQuantizer(
            (observer): MovingAverageMinMaxObserver()
          )
          (weight_quantizer): SymmetricQuantizer(
            (observer): MinMaxObserver()
          )
        )
        (1): BatchNorm2d(480, eps=1e-05, momentum=0.1, affine=True, track_running_stats=True)
        (2): QuantReLU(
          inplace=True
          (activation_quantizer): AsymmetricQuantizer(
            (observer): MovingAverageMinMaxObserver()
          )
        )
        (3): QuantConv2d(
          480, 480, kernel_size=(3, 3), stride=(1, 1), padding=(1, 1), groups=480, bias=False
          (activation_quantizer): AsymmetricQuantizer(
            (observer): MovingAverageMinMaxObserver()
          )
          (weight_quantizer): SymmetricQuantizer(
            (observer): MinMaxObserver()
          )
        )
        (4): BatchNorm2d(480, eps=1e-05, momentum=0.1, affine=True, track_running_stats=True)
        (5): QuantReLU(
          inplace=True
          (activation_quantizer): AsymmetricQuantizer(
            (observer): MovingAverageMinMaxObserver()
          )
        )
        (6): QuantConv2d(
          480, 80, kernel_size=(1, 1), stride=(1, 1), bias=False
          (activation_quantizer): AsymmetricQuantizer(
            (observer): MovingAverageMinMaxObserver()
          )
          (weight_quantizer): SymmetricQuantizer(
            (observer): MinMaxObserver()
          )
        )
        (7): BatchNorm2d(80, eps=1e-05, momentum=0.1, affine=True, track_running_stats=True)
      )
    )
    (17): InvertedResidual(
      (conv): Sequential(
        (0): QuantConv2d(
          80, 480, kernel_size=(1, 1), stride=(1, 1), bias=False
          (activation_quantizer): AsymmetricQuantizer(
            (observer): MovingAverageMinMaxObserver()
          )
          (weight_quantizer): SymmetricQuantizer(
            (observer): MinMaxObserver()
          )
        )
        (1): BatchNorm2d(480, eps=1e-05, momentum=0.1, affine=True, track_running_stats=True)
        (2): QuantReLU(
          inplace=True
          (activation_quantizer): AsymmetricQuantizer(
            (observer): MovingAverageMinMaxObserver()
          )
        )
        (3): QuantConv2d(
          480, 480, kernel_size=(3, 3), stride=(1, 1), padding=(1, 1), groups=480, bias=False
          (activation_quantizer): AsymmetricQuantizer(
            (observer): MovingAverageMinMaxObserver()
          )
          (weight_quantizer): SymmetricQuantizer(
            (observer): MinMaxObserver()
          )
        )
        (4): BatchNorm2d(480, eps=1e-05, momentum=0.1, affine=True, track_running_stats=True)
        (5): QuantReLU(
          inplace=True
          (activation_quantizer): AsymmetricQuantizer(
            (observer): MovingAverageMinMaxObserver()
          )
        )
        (6): QuantConv2d(
          480, 160, kernel_size=(1, 1), stride=(1, 1), bias=False
          (activation_quantizer): AsymmetricQuantizer(
            (observer): MovingAverageMinMaxObserver()
          )
          (weight_quantizer): SymmetricQuantizer(
            (observer): MinMaxObserver()
          )
        )
        (7): BatchNorm2d(160, eps=1e-05, momentum=0.1, affine=True, track_running_stats=True)
      )
    )
  )
  (conv2): Sequential(
    (0): QuantConv2d(
      160, 128, kernel_size=(1, 1), stride=(1, 1), bias=False
      (activation_quantizer): AsymmetricQuantizer(
        (observer): MovingAverageMinMaxObserver()
      )
      (weight_quantizer): SymmetricQuantizer(
        (observer): MinMaxObserver()
      )
    )
    (1): BatchNorm2d(128, eps=1e-05, momentum=0.1, affine=True, track_running_stats=True)
    (2): QuantReLU(
      inplace=True
      (activation_quantizer): AsymmetricQuantizer(
        (observer): MovingAverageMinMaxObserver()
      )
    )
  )
  (deconv_layers): Sequential(
    (0): QuantConvTranspose2d(
      128, 128, kernel_size=(4, 4), stride=(2, 2), padding=(1, 1), groups=128, bias=False
      (activation_quantizer): AsymmetricQuantizer(
        (observer): MovingAverageMinMaxObserver()
      )
      (weight_quantizer): SymmetricQuantizer(
        (observer): MinMaxObserver()
      )
    )
    (1): BatchNorm2d(128, eps=1e-05, momentum=0.1, affine=True, track_running_stats=True)
    (2): QuantReLU(
      inplace=True
      (activation_quantizer): AsymmetricQuantizer(
        (observer): MovingAverageMinMaxObserver()
      )
    )
    (3): QuantConv2d(
      128, 128, kernel_size=(1, 1), stride=(1, 1), bias=False
      (activation_quantizer): AsymmetricQuantizer(
        (observer): MovingAverageMinMaxObserver()
      )
      (weight_quantizer): SymmetricQuantizer(
        (observer): MinMaxObserver()
      )
    )
    (4): BatchNorm2d(128, eps=1e-05, momentum=0.1, affine=True, track_running_stats=True)
    (5): QuantReLU(
      inplace=True
      (activation_quantizer): AsymmetricQuantizer(
        (observer): MovingAverageMinMaxObserver()
      )
    )
    (6): QuantConvTranspose2d(
      128, 128, kernel_size=(4, 4), stride=(2, 2), padding=(1, 1), groups=128, bias=False
      (activation_quantizer): AsymmetricQuantizer(
        (observer): MovingAverageMinMaxObserver()
      )
      (weight_quantizer): SymmetricQuantizer(
        (observer): MinMaxObserver()
      )
    )
    (7): BatchNorm2d(128, eps=1e-05, momentum=0.1, affine=True, track_running_stats=True)
    (8): QuantReLU(
      inplace=True
      (activation_quantizer): AsymmetricQuantizer(
        (observer): MovingAverageMinMaxObserver()
      )
    )
    (9): QuantConv2d(
      128, 128, kernel_size=(1, 1), stride=(1, 1), bias=False
      (activation_quantizer): AsymmetricQuantizer(
        (observer): MovingAverageMinMaxObserver()
      )
      (weight_quantizer): SymmetricQuantizer(
        (observer): MinMaxObserver()
      )
    )
    (10): BatchNorm2d(128, eps=1e-05, momentum=0.1, affine=True, track_running_stats=True)
    (11): QuantReLU(
      inplace=True
      (activation_quantizer): AsymmetricQuantizer(
        (observer): MovingAverageMinMaxObserver()
      )
    )
    (12): QuantConvTranspose2d(
      128, 128, kernel_size=(4, 4), stride=(2, 2), padding=(1, 1), groups=128, bias=False
      (activation_quantizer): AsymmetricQuantizer(
        (observer): MovingAverageMinMaxObserver()
      )
      (weight_quantizer): SymmetricQuantizer(
        (observer): MinMaxObserver()
      )
    )
    (13): BatchNorm2d(128, eps=1e-05, momentum=0.1, affine=True, track_running_stats=True)
    (14): QuantReLU(
      inplace=True
      (activation_quantizer): AsymmetricQuantizer(
        (observer): MovingAverageMinMaxObserver()
      )
    )
    (15): QuantConv2d(
      128, 128, kernel_size=(1, 1), stride=(1, 1), bias=False
      (activation_quantizer): AsymmetricQuantizer(
        (observer): MovingAverageMinMaxObserver()
      )
      (weight_quantizer): SymmetricQuantizer(
        (observer): MinMaxObserver()
      )
    )
    (16): BatchNorm2d(128, eps=1e-05, momentum=0.1, affine=True, track_running_stats=True)
    (17): QuantReLU(
      inplace=True
      (activation_quantizer): AsymmetricQuantizer(
        (observer): MovingAverageMinMaxObserver()
      )
    )
  )
  (final_layer): QuantConv2d(
    128, 17, kernel_size=(1, 1), stride=(1, 1), bias=False
    (activation_quantizer): AsymmetricQuantizer(
      (observer): MovingAverageMinMaxObserver()
…
