…
          'OKS_THRE': 0.9,
          'POST_PROCESS': True,
          'SHIFT_HEATMAP': True,
          'USE_GT_BBOX': True},
 'TRAIN': {'BATCH_SIZE': 32,
           'BEGIN_EPOCH': 0,
           'CHECKPOINT': '',
           'END_EPOCH': 140,
           'GAMMA1': 0.99,
           'GAMMA2': 0.0,
           'LR': 0.001,
           'LR_FACTOR': 0.1,
           'LR_STEP': [90, 120],
           'MOMENTUM': 0.9,
           'NESTEROV': False,
           'OPTIMIZER': 'adam',
           'RESUME': False,
           'SHUFFLE': True,
           'WD': 0.0001},
 'WORKERS': 4}
PoseShuffleNet(
  (conv1): Sequential(
    (0): Conv2d(3, 24, kernel_size=(3, 3), stride=(2, 2), padding=(1, 1), bias=False)
    (1): BatchNorm2d(24, eps=1e-05, momentum=0.1, affine=True, track_running_stats=True)
    (2): ReLU(inplace=True)
  )
  (maxpool): MaxPool2d(kernel_size=3, stride=2, padding=1, dilation=1, ceil_mode=False)
  (stage2): Sequential(
    (0): InvertedResidual(
      (branch1): Sequential(
        (0): Conv2d(24, 24, kernel_size=(3, 3), stride=(2, 2), padding=(1, 1), groups=24, bias=False)
        (1): BatchNorm2d(24, eps=1e-05, momentum=0.1, affine=True, track_running_stats=True)
        (2): Conv2d(24, 58, kernel_size=(1, 1), stride=(1, 1), bias=False)
        (3): BatchNorm2d(58, eps=1e-05, momentum=0.1, affine=True, track_running_stats=True)
        (4): ReLU(inplace=True)
      )
      (branch2): Sequential(
        (0): Conv2d(24, 58, kernel_size=(1, 1), stride=(1, 1), bias=False)
        (1): BatchNorm2d(58, eps=1e-05, momentum=0.1, affine=True, track_running_stats=True)
        (2): ReLU(inplace=True)
        (3): Conv2d(58, 58, kernel_size=(3, 3), stride=(2, 2), padding=(1, 1), groups=58, bias=False)
        (4): BatchNorm2d(58, eps=1e-05, momentum=0.1, affine=True, track_running_stats=True)
        (5): Conv2d(58, 58, kernel_size=(1, 1), stride=(1, 1), bias=False)
        (6): BatchNorm2d(58, eps=1e-05, momentum=0.1, affine=True, track_running_stats=True)
        (7): ReLU(inplace=True)
      )
    )
    (1): InvertedResidual(
      (branch1): Sequential()
      (branch2): Sequential(
        (0): Conv2d(58, 58, kernel_size=(1, 1), stride=(1, 1), bias=False)
        (1): BatchNorm2d(58, eps=1e-05, momentum=0.1, affine=True, track_running_stats=True)
        (2): ReLU(inplace=True)
        (3): Conv2d(58, 58, kernel_size=(3, 3), stride=(1, 1), padding=(1, 1), groups=58, bias=False)
        (4): BatchNorm2d(58, eps=1e-05, momentum=0.1, affine=True, track_running_stats=True)
        (5): Conv2d(58, 58, kernel_size=(1, 1), stride=(1, 1), bias=False)
        (6): BatchNorm2d(58, eps=1e-05, momentum=0.1, affine=True, track_running_stats=True)
        (7): ReLU(inplace=True)
      )
    )
    (2): InvertedResidual(
      (branch1): Sequential()
      (branch2): Sequential(
        (0): Conv2d(58, 58, kernel_size=(1, 1), stride=(1, 1), bias=False)
        (1): BatchNorm2d(58, eps=1e-05, momentum=0.1, affine=True, track_running_stats=True)
        (2): ReLU(inplace=True)
        (3): Conv2d(58, 58, kernel_size=(3, 3), stride=(1, 1), padding=(1, 1), groups=58, bias=False)
        (4): BatchNorm2d(58, eps=1e-05, momentum=0.1, affine=True, track_running_stats=True)
        (5): Conv2d(58, 58, kernel_size=(1, 1), stride=(1, 1), bias=False)
        (6): BatchNorm2d(58, eps=1e-05, momentum=0.1, affine=True, track_running_stats=True)
        (7): ReLU(inplace=True)
      )
    )
    (3): InvertedResidual(
      (branch1): Sequential()
      (branch2): Sequential(
        (0): Conv2d(58, 58, kernel_size=(1, 1), stride=(1, 1), bias=False)
        (1): BatchNorm2d(58, eps=1e-05, momentum=0.1, affine=True, track_running_stats=True)
        (2): ReLU(inplace=True)
        (3): Conv2d(58, 58, kernel_size=(3, 3), stride=(1, 1), padding=(1, 1), groups=58, bias=False)
        (4): BatchNorm2d(58, eps=1e-05, momentum=0.1, affine=True, track_running_stats=True)
        (5): Conv2d(58, 58, kernel_size=(1, 1), stride=(1, 1), bias=False)
        (6): BatchNorm2d(58, eps=1e-05, momentum=0.1, affine=True, track_running_stats=True)
        (7): ReLU(inplace=True)
      )
    )
  )
  (stage3): Sequential(
    (0): InvertedResidual(
      (branch1): Sequential(
        (0): Conv2d(116, 116, kernel_size=(3, 3), stride=(2, 2), padding=(1, 1), groups=116, bias=False)
        (1): BatchNorm2d(116, eps=1e-05, momentum=0.1, affine=True, track_running_stats=True)
        (2): Conv2d(116, 116, kernel_size=(1, 1), stride=(1, 1), bias=False)
        (3): BatchNorm2d(116, eps=1e-05, momentum=0.1, affine=True, track_running_stats=True)
        (4): ReLU(inplace=True)
      )
      (branch2): Sequential(
        (0): Conv2d(116, 116, kernel_size=(1, 1), stride=(1, 1), bias=False)
        (1): BatchNorm2d(116, eps=1e-05, momentum=0.1, affine=True, track_running_stats=True)
        (2): ReLU(inplace=True)
        (3): Conv2d(116, 116, kernel_size=(3, 3), stride=(2, 2), padding=(1, 1), groups=116, bias=False)
        (4): BatchNorm2d(116, eps=1e-05, momentum=0.1, affine=True, track_running_stats=True)
        (5): Conv2d(116, 116, kernel_size=(1, 1), stride=(1, 1), bias=False)
        (6): BatchNorm2d(116, eps=1e-05, momentum=0.1, affine=True, track_running_stats=True)
        (7): ReLU(inplace=True)
      )
    )
    (1): InvertedResidual(
      (branch1): Sequential()
      (branch2): Sequential(
        (0): Conv2d(116, 116, kernel_size=(1, 1), stride=(1, 1), bias=False)
        (1): BatchNorm2d(116, eps=1e-05, momentum=0.1, affine=True, track_running_stats=True)
        (2): ReLU(inplace=True)
        (3): Conv2d(116, 116, kernel_size=(3, 3), stride=(1, 1), padding=(1, 1), groups=116, bias=False)
        (4): BatchNorm2d(116, eps=1e-05, momentum=0.1, affine=True, track_running_stats=True)
        (5): Conv2d(116, 116, kernel_size=(1, 1), stride=(1, 1), bias=False)
        (6): BatchNorm2d(116, eps=1e-05, momentum=0.1, affine=True, track_running_stats=True)
        (7): ReLU(inplace=True)
      )
    )
    (2): InvertedResidual(
      (branch1): Sequential()
      (branch2): Sequential(
        (0): Conv2d(116, 116, kernel_size=(1, 1), stride=(1, 1), bias=False)
        (1): BatchNorm2d(116, eps=1e-05, momentum=0.1, affine=True, track_running_stats=True)
        (2): ReLU(inplace=True)
        (3): Conv2d(116, 116, kernel_size=(3, 3), stride=(1, 1), padding=(1, 1), groups=116, bias=False)
        (4): BatchNorm2d(116, eps=1e-05, momentum=0.1, affine=True, track_running_stats=True)
        (5): Conv2d(116, 116, kernel_size=(1, 1), stride=(1, 1), bias=False)
        (6): BatchNorm2d(116, eps=1e-05, momentum=0.1, affine=True, track_running_stats=True)
        (7): ReLU(inplace=True)
      )
    )
    (3): InvertedResidual(
      (branch1): Sequential()
      (branch2): Sequential(
        (0): Conv2d(116, 116, kernel_size=(1, 1), stride=(1, 1), bias=False)
        (1): BatchNorm2d(116, eps=1e-05, momentum=0.1, affine=True, track_running_stats=True)
        (2): ReLU(inplace=True)
        (3): Conv2d(116, 116, kernel_size=(3, 3), stride=(1, 1), padding=(1, 1), groups=116, bias=False)
        (4): BatchNorm2d(116, eps=1e-05, momentum=0.1, affine=True, track_running_stats=True)
        (5): Conv2d(116, 116, kernel_size=(1, 1), stride=(1, 1), bias=False)
        (6): BatchNorm2d(116, eps=1e-05, momentum=0.1, affine=True, track_running_stats=True)
        (7): ReLU(inplace=True)
      )
    )
    (4): InvertedResidual(
      (branch1): Sequential()
      (branch2): Sequential(
        (0): Conv2d(116, 116, kernel_size=(1, 1), stride=(1, 1), bias=False)
        (1): BatchNorm2d(116, eps=1e-05, momentum=0.1, affine=True, track_running_stats=True)
        (2): ReLU(inplace=True)
        (3): Conv2d(116, 116, kernel_size=(3, 3), stride=(1, 1), padding=(1, 1), groups=116, bias=False)
        (4): BatchNorm2d(116, eps=1e-05, momentum=0.1, affine=True, track_running_stats=True)
        (5): Conv2d(116, 116, kernel_size=(1, 1), stride=(1, 1), bias=False)
        (6): BatchNorm2d(116, eps=1e-05, momentum=0.1, affine=True, track_running_stats=True)
        (7): ReLU(inplace=True)
      )
    )
    (5): InvertedResidual(
      (branch1): Sequential()
      (branch2): Sequential(
        (0): Conv2d(116, 116, kernel_size=(1, 1), stride=(1, 1), bias=False)
        (1): BatchNorm2d(116, eps=1e-05, momentum=0.1, affine=True, track_running_stats=True)
        (2): ReLU(inplace=True)
        (3): Conv2d(116, 116, kernel_size=(3, 3), stride=(1, 1), padding=(1, 1), groups=116, bias=False)
        (4): BatchNorm2d(116, eps=1e-05, momentum=0.1, affine=True, track_running_stats=True)
        (5): Conv2d(116, 116, kernel_size=(1, 1), stride=(1, 1), bias=False)
        (6): BatchNorm2d(116, eps=1e-05, momentum=0.1, affine=True, track_running_stats=True)
        (7): ReLU(inplace=True)
      )
    )
    (6): InvertedResidual(
      (branch1): Sequential()
      (branch2): Sequential(
        (0): Conv2d(116, 116, kernel_size=(1, 1), stride=(1, 1), bias=False)
        (1): BatchNorm2d(116, eps=1e-05, momentum=0.1, affine=True, track_running_stats=True)
        (2): ReLU(inplace=True)
        (3): Conv2d(116, 116, kernel_size=(3, 3), stride=(1, 1), padding=(1, 1), groups=116, bias=False)
        (4): BatchNorm2d(116, eps=1e-05, momentum=0.1, affine=True, track_running_stats=True)
        (5): Conv2d(116, 116, kernel_size=(1, 1), stride=(1, 1), bias=False)
        (6): BatchNorm2d(116, eps=1e-05, momentum=0.1, affine=True, track_running_stats=True)
        (7): ReLU(inplace=True)
      )
    )
    (7): InvertedResidual(
      (branch1): Sequential()
      (branch2): Sequential(
        (0): Conv2d(116, 116, kernel_size=(1, 1), stride=(1, 1), bias=False)
        (1): BatchNorm2d(116, eps=1e-05, momentum=0.1, affine=True, track_running_stats=True)
        (2): ReLU(inplace=True)
        (3): Conv2d(116, 116, kernel_size=(3, 3), stride=(1, 1), padding=(1, 1), groups=116, bias=False)
        (4): BatchNorm2d(116, eps=1e-05, momentum=0.1, affine=True, track_running_stats=True)
        (5): Conv2d(116, 116, kernel_size=(1, 1), stride=(1, 1), bias=False)
        (6): BatchNorm2d(116, eps=1e-05, momentum=0.1, affine=True, track_running_stats=True)
        (7): ReLU(inplace=True)
      )
    )
  )
  (stage4): Sequential(
    (0): InvertedResidual(
      (branch1): Sequential(
        (0): Conv2d(232, 232, kernel_size=(3, 3), stride=(2, 2), padding=(1, 1), groups=232, bias=False)
        (1): BatchNorm2d(232, eps=1e-05, momentum=0.1, affine=True, track_running_stats=True)
        (2): Conv2d(232, 232, kernel_size=(1, 1), stride=(1, 1), bias=False)
        (3): BatchNorm2d(232, eps=1e-05, momentum=0.1, affine=True, track_running_stats=True)
        (4): ReLU(inplace=True)
      )
      (branch2): Sequential(
        (0): Conv2d(232, 232, kernel_size=(1, 1), stride=(1, 1), bias=False)
        (1): BatchNorm2d(232, eps=1e-05, momentum=0.1, affine=True, track_running_stats=True)
        (2): ReLU(inplace=True)
        (3): Conv2d(232, 232, kernel_size=(3, 3), stride=(2, 2), padding=(1, 1), groups=232, bias=False)
        (4): BatchNorm2d(232, eps=1e-05, momentum=0.1, affine=True, track_running_stats=True)
        (5): Conv2d(232, 232, kernel_size=(1, 1), stride=(1, 1), bias=False)
        (6): BatchNorm2d(232, eps=1e-05, momentum=0.1, affine=True, track_running_stats=True)
        (7): ReLU(inplace=True)
      )
    )
    (1): InvertedResidual(
      (branch1): Sequential()
      (branch2): Sequential(
        (0): Conv2d(232, 232, kernel_size=(1, 1), stride=(1, 1), bias=False)
        (1): BatchNorm2d(232, eps=1e-05, momentum=0.1, affine=True, track_running_stats=True)
        (2): ReLU(inplace=True)
        (3): Conv2d(232, 232, kernel_size=(3, 3), stride=(1, 1), padding=(1, 1), groups=232, bias=False)
        (4): BatchNorm2d(232, eps=1e-05, momentum=0.1, affine=True, track_running_stats=True)
        (5): Conv2d(232, 232, kernel_size=(1, 1), stride=(1, 1), bias=False)
        (6): BatchNorm2d(232, eps=1e-05, momentum=0.1, affine=True, track_running_stats=True)
        (7): ReLU(inplace=True)
      )
    )
    (2): InvertedResidual(
      (branch1): Sequential()
      (branch2): Sequential(
        (0): Conv2d(232, 232, kernel_size=(1, 1), stride=(1, 1), bias=False)
        (1): BatchNorm2d(232, eps=1e-05, momentum=0.1, affine=True, track_running_stats=True)
        (2): ReLU(inplace=True)
        (3): Conv2d(232, 232, kernel_size=(3, 3), stride=(1, 1), padding=(1, 1), groups=232, bias=False)
        (4): BatchNorm2d(232, eps=1e-05, momentum=0.1, affine=True, track_running_stats=True)
        (5): Conv2d(232, 232, kernel_size=(1, 1), stride=(1, 1), bias=False)
        (6): BatchNorm2d(232, eps=1e-05, momentum=0.1, affine=True, track_running_stats=True)
        (7): ReLU(inplace=True)
      )
    )
    (3): InvertedResidual(
      (branch1): Sequential()
      (branch2): Sequential(
        (0): Conv2d(232, 232, kernel_size=(1, 1), stride=(1, 1), bias=False)
        (1): BatchNorm2d(232, eps=1e-05, momentum=0.1, affine=True, track_running_stats=True)
        (2): ReLU(inplace=True)
        (3): Conv2d(232, 232, kernel_size=(3, 3), stride=(1, 1), padding=(1, 1), groups=232, bias=False)
        (4): BatchNorm2d(232, eps=1e-05, momentum=0.1, affine=True, track_running_stats=True)
        (5): Conv2d(232, 232, kernel_size=(1, 1), stride=(1, 1), bias=False)
        (6): BatchNorm2d(232, eps=1e-05, momentum=0.1, affine=True, track_running_stats=True)
        (7): ReLU(inplace=True)
      )
    )
  )
  (conv2): Sequential(
    (0): Conv2d(464, 64, kernel_size=(1, 1), stride=(1, 1), bias=False)
    (1): BatchNorm2d(64, eps=1e-05, momentum=0.1, affine=True, track_running_stats=True)
    (2): ReLU(inplace=True)
  )
  (deconv_layers): Sequential(
    (0): ConvTranspose2d(64, 256, kernel_size=(4, 4), stride=(2, 2), padding=(1, 1), bias=False)
    (1): BatchNorm2d(256, eps=1e-05, momentum=0.1, affine=True, track_running_stats=True)
    (2): ReLU(inplace=True)
    (3): ConvTranspose2d(256, 256, kernel_size=(4, 4), stride=(2, 2), padding=(1, 1), bias=False)
    (4): BatchNorm2d(256, eps=1e-05, momentum=0.1, affine=True, track_running_stats=True)
    (5): ReLU(inplace=True)
    (6): ConvTranspose2d(256, 256, kernel_size=(4, 4), stride=(2, 2), padding=(1, 1), bias=False)
    (7): BatchNorm2d(256, eps=1e-05, momentum=0.1, affine=True, track_running_stats=True)
    (8): ReLU(inplace=True)
  )
  (final_layer): Conv2d(256, 17, kernel_size=(1, 1), stride=(1, 1))
)
/home/ytwang/anaconda3/lib/python3.8/site-packages/torch/nn/_reduction.py:44: UserWarning: size_average and reduce args will be deprecated, please use reduction='mean' instead.
  warnings.warn(warning.format(ret))
loading annotations into memory...
Done (t=9.10s)
creating index...
index created!
=> classes: ['__background__', 'person']
=> num_images: 118287
…
