PoseMobileNet(
  (features): Sequential(
    (0): Sequential(
      (0): Conv2d(3, 16, kernel_size=(3, 3), stride=(2, 2), padding=(1, 1), bias=False)
      (1): BatchNorm2d(16, eps=1e-05, momentum=0.1, affine=True, track_running_stats=True)
      (2): ReLU(inplace=True)
    )
    (1): InvertedResidual(
      (conv): Sequential(
        (0): Conv2d(16, 16, kernel_size=(3, 3), stride=(1, 1), padding=(1, 1), groups=16, bias=False)
        (1): BatchNorm2d(16, eps=1e-05, momentum=0.1, affine=True, track_running_stats=True)
        (2): ReLU(inplace=True)
        (3): Conv2d(16, 8, kernel_size=(1, 1), stride=(1, 1), bias=False)
        (4): BatchNorm2d(8, eps=1e-05, momentum=0.1, affine=True, track_running_stats=True)
      )
    )
    (2): InvertedResidual(
      (conv): Sequential(
        (0): Conv2d(8, 48, kernel_size=(1, 1), stride=(1, 1), bias=False)
        (1): BatchNorm2d(48, eps=1e-05, momentum=0.1, affine=True, track_running_stats=True)
        (2): ReLU(inplace=True)
        (3): Conv2d(48, 48, kernel_size=(3, 3), stride=(2, 2), padding=(1, 1), groups=48, bias=False)
        (4): BatchNorm2d(48, eps=1e-05, momentum=0.1, affine=True, track_running_stats=True)
        (5): ReLU(inplace=True)
        (6): Conv2d(48, 16, kernel_size=(1, 1), stride=(1, 1), bias=False)
        (7): BatchNorm2d(16, eps=1e-05, momentum=0.1, affine=True, track_running_stats=True)
      )
    )
    (3): InvertedResidual(
      (conv): Sequential(
        (0): Conv2d(16, 96, kernel_size=(1, 1), stride=(1, 1), bias=False)
        (1): BatchNorm2d(96, eps=1e-05, momentum=0.1, affine=True, track_running_stats=True)
        (2): ReLU(inplace=True)
        (3): Conv2d(96, 96, kernel_size=(3, 3), stride=(1, 1), padding=(1, 1), groups=96, bias=False)
        (4): BatchNorm2d(96, eps=1e-05, momentum=0.1, affine=True, track_running_stats=True)
        (5): ReLU(inplace=True)
        (6): Conv2d(96, 16, kernel_size=(1, 1), stride=(1, 1), bias=False)
        (7): BatchNorm2d(16, eps=1e-05, momentum=0.1, affine=True, track_running_stats=True)
      )
    )
    (4): InvertedResidual(
      (conv): Sequential(
        (0): Conv2d(16, 96, kernel_size=(1, 1), stride=(1, 1), bias=False)
        (1): BatchNorm2d(96, eps=1e-05, momentum=0.1, affine=True, track_running_stats=True)
        (2): ReLU(inplace=True)
        (3): Conv2d(96, 96, kernel_size=(3, 3), stride=(2, 2), padding=(1, 1), groups=96, bias=False)
        (4): BatchNorm2d(96, eps=1e-05, momentum=0.1, affine=True, track_running_stats=True)
        (5): ReLU(inplace=True)
        (6): Conv2d(96, 16, kernel_size=(1, 1), stride=(1, 1), bias=False)
        (7): BatchNorm2d(16, eps=1e-05, momentum=0.1, affine=True, track_running_stats=True)
      )
    )
    (5): InvertedResidual(
      (conv): Sequential(
        (0): Conv2d(16, 96, kernel_size=(1, 1), stride=(1, 1), bias=False)
        (1): BatchNorm2d(96, eps=1e-05, momentum=0.1, affine=True, track_running_stats=True)
        (2): ReLU(inplace=True)
        (3): Conv2d(96, 96, kernel_size=(3, 3), stride=(1, 1), padding=(1, 1), groups=96, bias=False)
        (4): BatchNorm2d(96, eps=1e-05, momentum=0.1, affine=True, track_running_stats=True)
        (5): ReLU(inplace=True)
        (6): Conv2d(96, 16, kernel_size=(1, 1), stride=(1, 1), bias=False)
        (7): BatchNorm2d(16, eps=1e-05, momentum=0.1, affine=True, track_running_stats=True)
      )
    )
    (6): InvertedResidual(
      (conv): Sequential(
        (0): Conv2d(16, 96, kernel_size=(1, 1), stride=(1, 1), bias=False)
        (1): BatchNorm2d(96, eps=1e-05, momentum=0.1, affine=True, track_running_stats=True)
        (2): ReLU(inplace=True)
        (3): Conv2d(96, 96, kernel_size=(3, 3), stride=(1, 1), padding=(1, 1), groups=96, bias=False)
        (4): BatchNorm2d(96, eps=1e-05, momentum=0.1, affine=True, track_running_stats=True)
        (5): ReLU(inplace=True)
        (6): Conv2d(96, 16, kernel_size=(1, 1), stride=(1, 1), bias=False)
        (7): BatchNorm2d(16, eps=1e-05, momentum=0.1, affine=True, track_running_stats=True)
      )
    )
    (7): InvertedResidual(
      (conv): Sequential(
        (0): Conv2d(16, 96, kernel_size=(1, 1), stride=(1, 1), bias=False)
        (1): BatchNorm2d(96, eps=1e-05, momentum=0.1, affine=True, track_running_stats=True)
        (2): ReLU(inplace=True)
        (3): Conv2d(96, 96, kernel_size=(3, 3), stride=(2, 2), padding=(1, 1), groups=96, bias=False)
        (4): BatchNorm2d(96, eps=1e-05, momentum=0.1, affine=True, track_running_stats=True)
        (5): ReLU(inplace=True)
        (6): Conv2d(96, 32, kernel_size=(1, 1), stride=(1, 1), bias=False)
        (7): BatchNorm2d(32, eps=1e-05, momentum=0.1, affine=True, track_running_stats=True)
      )
    )
    (8): InvertedResidual(
      (conv): Sequential(
        (0): Conv2d(32, 192, kernel_size=(1, 1), stride=(1, 1), bias=False)
        (1): BatchNorm2d(192, eps=1e-05, momentum=0.1, affine=True, track_running_stats=True)
        (2): ReLU(inplace=True)
        (3): Conv2d(192, 192, kernel_size=(3, 3), stride=(1, 1), padding=(1, 1), groups=192, bias=False)
        (4): BatchNorm2d(192, eps=1e-05, momentum=0.1, affine=True, track_running_stats=True)
        (5): ReLU(inplace=True)
        (6): Conv2d(192, 32, kernel_size=(1, 1), stride=(1, 1), bias=False)
        (7): BatchNorm2d(32, eps=1e-05, momentum=0.1, affine=True, track_running_stats=True)
      )
    )
    (9): InvertedResidual(
      (conv): Sequential(
        (0): Conv2d(32, 192, kernel_size=(1, 1), stride=(1, 1), bias=False)
        (1): BatchNorm2d(192, eps=1e-05, momentum=0.1, affine=True, track_running_stats=True)
        (2): ReLU(inplace=True)
        (3): Conv2d(192, 192, kernel_size=(3, 3), stride=(1, 1), padding=(1, 1), groups=192, bias=False)
        (4): BatchNorm2d(192, eps=1e-05, momentum=0.1, affine=True, track_running_stats=True)
        (5): ReLU(inplace=True)
        (6): Conv2d(192, 32, kernel_size=(1, 1), stride=(1, 1), bias=False)
        (7): BatchNorm2d(32, eps=1e-05, momentum=0.1, affine=True, track_running_stats=True)
      )
    )
    (10): InvertedResidual(
      (conv): Sequential(
        (0): Conv2d(32, 192, kernel_size=(1, 1), stride=(1, 1), bias=False)
        (1): BatchNorm2d(192, eps=1e-05, momentum=0.1, affine=True, track_running_stats=True)
        (2): ReLU(inplace=True)
        (3): Conv2d(192, 192, kernel_size=(3, 3), stride=(1, 1), padding=(1, 1), groups=192, bias=False)
        (4): BatchNorm2d(192, eps=1e-05, momentum=0.1, affine=True, track_running_stats=True)
        (5): ReLU(inplace=True)
        (6): Conv2d(192, 32, kernel_size=(1, 1), stride=(1, 1), bias=False)
        (7): BatchNorm2d(32, eps=1e-05, momentum=0.1, affine=True, track_running_stats=True)
      )
    )
    (11): InvertedResidual(
      (conv): Sequential(
        (0): Conv2d(32, 192, kernel_size=(1, 1), stride=(1, 1), bias=False)
        (1): BatchNorm2d(192, eps=1e-05, momentum=0.1, affine=True, track_running_stats=True)
        (2): ReLU(inplace=True)
        (3): Conv2d(192, 192, kernel_size=(3, 3), stride=(1, 1), padding=(1, 1), groups=192, bias=False)
        (4): BatchNorm2d(192, eps=1e-05, momentum=0.1, affine=True, track_running_stats=True)
        (5): ReLU(inplace=True)
        (6): Conv2d(192, 48, kernel_size=(1, 1), stride=(1, 1), bias=False)
        (7): BatchNorm2d(48, eps=1e-05, momentum=0.1, affine=True, track_running_stats=True)
      )
    )
    (12): InvertedResidual(
      (conv): Sequential(
        (0): Conv2d(48, 288, kernel_size=(1, 1), stride=(1, 1), bias=False)
        (1): BatchNorm2d(288, eps=1e-05, momentum=0.1, affine=True, track_running_stats=True)
        (2): ReLU(inplace=True)
        (3): Conv2d(288, 288, kernel_size=(3, 3), stride=(1, 1), padding=(1, 1), groups=288, bias=False)
        (4): BatchNorm2d(288, eps=1e-05, momentum=0.1, affine=True, track_running_stats=True)
        (5): ReLU(inplace=True)
        (6): Conv2d(288, 48, kernel_size=(1, 1), stride=(1, 1), bias=False)
        (7): BatchNorm2d(48, eps=1e-05, momentum=0.1, affine=True, track_running_stats=True)
      )
    )
    (13): InvertedResidual(
      (conv): Sequential(
        (0): Conv2d(48, 288, kernel_size=(1, 1), stride=(1, 1), bias=False)
        (1): BatchNorm2d(288, eps=1e-05, momentum=0.1, affine=True, track_running_stats=True)
        (2): ReLU(inplace=True)
        (3): Conv2d(288, 288, kernel_size=(3, 3), stride=(1, 1), padding=(1, 1), groups=288, bias=False)
        (4): BatchNorm2d(288, eps=1e-05, momentum=0.1, affine=True, track_running_stats=True)
        (5): ReLU(inplace=True)
        (6): Conv2d(288, 48, kernel_size=(1, 1), stride=(1, 1), bias=False)
        (7): BatchNorm2d(48, eps=1e-05, momentum=0.1, affine=True, track_running_stats=True)
      )
    )
    (14): InvertedResidual(
      (conv): Sequential(
        (0): Conv2d(48, 288, kernel_size=(1, 1), stride=(1, 1), bias=False)
        (1): BatchNorm2d(288, eps=1e-05, momentum=0.1, affine=True, track_running_stats=True)
        (2): ReLU(inplace=True)
        (3): Conv2d(288, 288, kernel_size=(3, 3), stride=(2, 2), padding=(1, 1), groups=288, bias=False)
        (4): BatchNorm2d(288, eps=1e-05, momentum=0.1, affine=True, track_running_stats=True)
        (5): ReLU(inplace=True)
        (6): Conv2d(288, 80, kernel_size=(1, 1), stride=(1, 1), bias=False)
        (7): BatchNorm2d(80, eps=1e-05, momentum=0.1, affine=True, track_running_stats=True)
      )
    )
    (15): InvertedResidual(
      (conv): Sequential(
        (0): Conv2d(80, 480, kernel_size=(1, 1), stride=(1, 1), bias=False)
        (1): BatchNorm2d(480, eps=1e-05, momentum=0.1, affine=True, track_running_stats=True)
        (2): ReLU(inplace=True)
        (3): Conv2d(480, 480, kernel_size=(3, 3), stride=(1, 1), padding=(1, 1), groups=480, bias=False)
        (4): BatchNorm2d(480, eps=1e-05, momentum=0.1, affine=True, track_running_stats=True)
        (5): ReLU(inplace=True)
        (6): Conv2d(480, 80, kernel_size=(1, 1), stride=(1, 1), bias=False)
        (7): BatchNorm2d(80, eps=1e-05, momentum=0.1, affine=True, track_running_stats=True)
      )
    )
    (16): InvertedResidual(
      (conv): Sequential(
        (0): Conv2d(80, 480, kernel_size=(1, 1), stride=(1, 1), bias=False)
        (1): BatchNorm2d(480, eps=1e-05, momentum=0.1, affine=True, track_running_stats=True)
        (2): ReLU(inplace=True)
        (3): Conv2d(480, 480, kernel_size=(3, 3), stride=(1, 1), padding=(1, 1), groups=480, bias=False)
        (4): BatchNorm2d(480, eps=1e-05, momentum=0.1, affine=True, track_running_stats=True)
        (5): ReLU(inplace=True)
        (6): Conv2d(480, 80, kernel_size=(1, 1), stride=(1, 1), bias=False)
        (7): BatchNorm2d(80, eps=1e-05, momentum=0.1, affine=True, track_running_stats=True)
      )
    )
    (17): InvertedResidual(
      (conv): Sequential(
        (0): Conv2d(80, 480, kernel_size=(1, 1), stride=(1, 1), bias=False)
        (1): BatchNorm2d(480, eps=1e-05, momentum=0.1, affine=True, track_running_stats=True)
        (2): ReLU(inplace=True)
        (3): Conv2d(480, 480, kernel_size=(3, 3), stride=(1, 1), padding=(1, 1), groups=480, bias=False)
        (4): BatchNorm2d(480, eps=1e-05, momentum=0.1, affine=True, track_running_stats=True)
        (5): ReLU(inplace=True)
        (6): Conv2d(480, 160, kernel_size=(1, 1), stride=(1, 1), bias=False)
        (7): BatchNorm2d(160, eps=1e-05, momentum=0.1, affine=True, track_running_stats=True)
      )
    )
  )
  (conv2): Sequential(
    (0): Conv2d(160, 128, kernel_size=(1, 1), stride=(1, 1), bias=False)
    (1): BatchNorm2d(128, eps=1e-05, momentum=0.1, affine=True, track_running_stats=True)
    (2): ReLU(inplace=True)
  )
  (deconv_layers): Sequential(
    (0): ConvTranspose2d(128, 128, kernel_size=(4, 4), stride=(2, 2), padding=(1, 1), groups=128, bias=False)
    (1): BatchNorm2d(128, eps=1e-05, momentum=0.1, affine=True, track_running_stats=True)
    (2): ReLU(inplace=True)
    (3): Conv2d(128, 128, kernel_size=(1, 1), stride=(1, 1), bias=False)
    (4): BatchNorm2d(128, eps=1e-05, momentum=0.1, affine=True, track_running_stats=True)
    (5): ReLU(inplace=True)
    (6): ConvTranspose2d(128, 128, kernel_size=(4, 4), stride=(2, 2), padding=(1, 1), groups=128, bias=False)
    (7): BatchNorm2d(128, eps=1e-05, momentum=0.1, affine=True, track_running_stats=True)
    (8): ReLU(inplace=True)
    (9): Conv2d(128, 128, kernel_size=(1, 1), stride=(1, 1), bias=False)
    (10): BatchNorm2d(128, eps=1e-05, momentum=0.1, affine=True, track_running_stats=True)
    (11): ReLU(inplace=True)
    (12): ConvTranspose2d(128, 128, kernel_size=(4, 4), stride=(2, 2), padding=(1, 1), groups=128, bias=False)
    (13): BatchNorm2d(128, eps=1e-05, momentum=0.1, affine=True, track_running_stats=True)
    (14): ReLU(inplace=True)
    (15): Conv2d(128, 128, kernel_size=(1, 1), stride=(1, 1), bias=False)
    (16): BatchNorm2d(128, eps=1e-05, momentum=0.1, affine=True, track_running_stats=True)
    (17): ReLU(inplace=True)
  )
  (final_layer): Conv2d(128, 17, kernel_size=(1, 1), stride=(1, 1), bias=False)
)

Model.state_dict:
0 features.0.0.weight    torch.Size([16, 3, 3, 3])
1 features.0.1.weight    torch.Size([16])
2 features.0.1.bias      torch.Size([16])
3 features.0.1.running_mean      torch.Size([16])
4 features.0.1.running_var       torch.Size([16])
5 features.0.1.num_batches_tracked       torch.Size([])
6 features.1.conv.0.weight       torch.Size([16, 1, 3, 3])
…
Using CUDA device0 _CudaDeviceProperties(name='GeForce RTX 2080 Ti', total_memory=11019MB)
           device1 _CudaDeviceProperties(name='GeForce RTX 2080 Ti', total_memory=11019MB)
           device2 _CudaDeviceProperties(name='GeForce RTX 2080 Ti', total_memory=11019MB)

Load model weight from output/coco/256x192_d256x3_adam_lr1e-3_mobile8_relu/final_state_560.pth.tar




*******************quant_model*******************
 PoseMobileNet(
  (features): Sequential(
    (0): Sequential(
      (0): QuanConv2d(
        3, 16, kernel_size=(3, 3), stride=(2, 2), padding=(1, 1), bias=False
        (quan_w_fn): LsqQuan()
        (quan_a_fn): LsqQuan()
      )
      (1): BatchNorm2d(16, eps=1e-05, momentum=0.1, affine=True, track_running_stats=True)
      (2): ReLU(inplace=True)
    )
    (1): InvertedResidual(
      (conv): Sequential(
        (0): QuanConv2d(
          16, 16, kernel_size=(3, 3), stride=(1, 1), padding=(1, 1), groups=16, bias=False
          (quan_w_fn): LsqQuan()
          (quan_a_fn): LsqQuan()
        )
        (1): BatchNorm2d(16, eps=1e-05, momentum=0.1, affine=True, track_running_stats=True)
        (2): ReLU(inplace=True)
        (3): QuanConv2d(
          16, 8, kernel_size=(1, 1), stride=(1, 1), bias=False
          (quan_w_fn): LsqQuan()
          (quan_a_fn): LsqQuan()
        )
        (4): BatchNorm2d(8, eps=1e-05, momentum=0.1, affine=True, track_running_stats=True)
      )
    )
    (2): InvertedResidual(
      (conv): Sequential(
        (0): QuanConv2d(
          8, 48, kernel_size=(1, 1), stride=(1, 1), bias=False
          (quan_w_fn): LsqQuan()
          (quan_a_fn): LsqQuan()
        )
        (1): BatchNorm2d(48, eps=1e-05, momentum=0.1, affine=True, track_running_stats=True)
        (2): ReLU(inplace=True)
        (3): QuanConv2d(
          48, 48, kernel_size=(3, 3), stride=(2, 2), padding=(1, 1), groups=48, bias=False
          (quan_w_fn): LsqQuan()
          (quan_a_fn): LsqQuan()
        )
        (4): BatchNorm2d(48, eps=1e-05, momentum=0.1, affine=True, track_running_stats=True)
        (5): ReLU(inplace=True)
        (6): QuanConv2d(
          48, 16, kernel_size=(1, 1), stride=(1, 1), bias=False
          (quan_w_fn): LsqQuan()
          (quan_a_fn): LsqQuan()
        )
        (7): BatchNorm2d(16, eps=1e-05, momentum=0.1, affine=True, track_running_stats=True)
      )
    )
    (3): InvertedResidual(
      (conv): Sequential(
        (0): QuanConv2d(
          16, 96, kernel_size=(1, 1), stride=(1, 1), bias=False
          (quan_w_fn): LsqQuan()
          (quan_a_fn): LsqQuan()
        )
        (1): BatchNorm2d(96, eps=1e-05, momentum=0.1, affine=True, track_running_stats=True)
        (2): ReLU(inplace=True)
        (3): QuanConv2d(
          96, 96, kernel_size=(3, 3), stride=(1, 1), padding=(1, 1), groups=96, bias=False
          (quan_w_fn): LsqQuan()
          (quan_a_fn): LsqQuan()
        )
        (4): BatchNorm2d(96, eps=1e-05, momentum=0.1, affine=True, track_running_stats=True)
        (5): ReLU(inplace=True)
        (6): QuanConv2d(
          96, 16, kernel_size=(1, 1), stride=(1, 1), bias=False
          (quan_w_fn): LsqQuan()
          (quan_a_fn): LsqQuan()
        )
        (7): BatchNorm2d(16, eps=1e-05, momentum=0.1, affine=True, track_running_stats=True)
      )
    )
    (4): InvertedResidual(
      (conv): Sequential(
        (0): QuanConv2d(
          16, 96, kernel_size=(1, 1), stride=(1, 1), bias=False
          (quan_w_fn): LsqQuan()
          (quan_a_fn): LsqQuan()
        )
        (1): BatchNorm2d(96, eps=1e-05, momentum=0.1, affine=True, track_running_stats=True)
        (2): ReLU(inplace=True)
        (3): QuanConv2d(
          96, 96, kernel_size=(3, 3), stride=(2, 2), padding=(1, 1), groups=96, bias=False
          (quan_w_fn): LsqQuan()
          (quan_a_fn): LsqQuan()
        )
        (4): BatchNorm2d(96, eps=1e-05, momentum=0.1, affine=True, track_running_stats=True)
        (5): ReLU(inplace=True)
        (6): QuanConv2d(
          96, 16, kernel_size=(1, 1), stride=(1, 1), bias=False
          (quan_w_fn): LsqQuan()
          (quan_a_fn): LsqQuan()
        )
        (7): BatchNorm2d(16, eps=1e-05, momentum=0.1, affine=True, track_running_stats=True)
      )
    )
    (5): InvertedResidual(
      (conv): Sequential(
        (0): QuanConv2d(
          16, 96, kernel_size=(1, 1), stride=(1, 1), bias=False
          (quan_w_fn): LsqQuan()
          (quan_a_fn): LsqQuan()
        )
        (1): BatchNorm2d(96, eps=1e-05, momentum=0.1, affine=True, track_running_stats=True)
        (2): ReLU(inplace=True)
        (3): QuanConv2d(
          96, 96, kernel_size=(3, 3), stride=(1, 1), padding=(1, 1), groups=96, bias=False
          (quan_w_fn): LsqQuan()
          (quan_a_fn): LsqQuan()
        )
        (4): BatchNorm2d(96, eps=1e-05, momentum=0.1, affine=True, track_running_stats=True)
        (5): ReLU(inplace=True)
        (6): QuanConv2d(
          96, 16, kernel_size=(1, 1), stride=(1, 1), bias=False
          (quan_w_fn): LsqQuan()
          (quan_a_fn): LsqQuan()
        )
        (7): BatchNorm2d(16, eps=1e-05, momentum=0.1, affine=True, track_running_stats=True)
      )
    )
    (6): InvertedResidual(
      (conv): Sequential(
        (0): QuanConv2d(
          16, 96, kernel_size=(1, 1), stride=(1, 1), bias=False
          (quan_w_fn): LsqQuan()
          (quan_a_fn): LsqQuan()
        )
        (1): BatchNorm2d(96, eps=1e-05, momentum=0.1, affine=True, track_running_stats=True)
        (2): ReLU(inplace=True)
        (3): QuanConv2d(
          96, 96, kernel_size=(3, 3), stride=(1, 1), padding=(1, 1), groups=96, bias=False
          (quan_w_fn): LsqQuan()
          (quan_a_fn): LsqQuan()
        )
        (4): BatchNorm2d(96, eps=1e-05, momentum=0.1, affine=True, track_running_stats=True)
        (5): ReLU(inplace=True)
        (6): QuanConv2d(
          96, 16, kernel_size=(1, 1), stride=(1, 1), bias=False
          (quan_w_fn): LsqQuan()
          (quan_a_fn): LsqQuan()
        )
        (7): BatchNorm2d(16, eps=1e-05, momentum=0.1, affine=True, track_running_stats=True)
      )
    )
    (7): InvertedResidual(
      (conv): Sequential(
        (0): QuanConv2d(
          16, 96, kernel_size=(1, 1), stride=(1, 1), bias=False
          (quan_w_fn): LsqQuan()
          (quan_a_fn): LsqQuan()
        )
        (1): BatchNorm2d(96, eps=1e-05, momentum=0.1, affine=True, track_running_stats=True)
        (2): ReLU(inplace=True)
        (3): QuanConv2d(
          96, 96, kernel_size=(3, 3), stride=(2, 2), padding=(1, 1), groups=96, bias=False
          (quan_w_fn): LsqQuan()
          (quan_a_fn): LsqQuan()
        )
        (4): BatchNorm2d(96, eps=1e-05, momentum=0.1, affine=True, track_running_stats=True)
        (5): ReLU(inplace=True)
        (6): QuanConv2d(
          96, 32, kernel_size=(1, 1), stride=(1, 1), bias=False
          (quan_w_fn): LsqQuan()
          (quan_a_fn): LsqQuan()
        )
        (7): BatchNorm2d(32, eps=1e-05, momentum=0.1, affine=True, track_running_stats=True)
      )
    )
    (8): InvertedResidual(
      (conv): Sequential(
        (0): QuanConv2d(
          32, 192, kernel_size=(1, 1), stride=(1, 1), bias=False
          (quan_w_fn): LsqQuan()
          (quan_a_fn): LsqQuan()
        )
        (1): BatchNorm2d(192, eps=1e-05, momentum=0.1, affine=True, track_running_stats=True)
        (2): ReLU(inplace=True)
        (3): QuanConv2d(
          192, 192, kernel_size=(3, 3), stride=(1, 1), padding=(1, 1), groups=192, bias=False
          (quan_w_fn): LsqQuan()
          (quan_a_fn): LsqQuan()
        )
        (4): BatchNorm2d(192, eps=1e-05, momentum=0.1, affine=True, track_running_stats=True)
        (5): ReLU(inplace=True)
        (6): QuanConv2d(
          192, 32, kernel_size=(1, 1), stride=(1, 1), bias=False
          (quan_w_fn): LsqQuan()
          (quan_a_fn): LsqQuan()
        )
        (7): BatchNorm2d(32, eps=1e-05, momentum=0.1, affine=True, track_running_stats=True)
      )
    )
    (9): InvertedResidual(
      (conv): Sequential(
        (0): QuanConv2d(
          32, 192, kernel_size=(1, 1), stride=(1, 1), bias=False
          (quan_w_fn): LsqQuan()
          (quan_a_fn): LsqQuan()
        )
        (1): BatchNorm2d(192, eps=1e-05, momentum=0.1, affine=True, track_running_stats=True)
        (2): ReLU(inplace=True)
        (3): QuanConv2d(
          192, 192, kernel_size=(3, 3), stride=(1, 1), padding=(1, 1), groups=192, bias=False
          (quan_w_fn): LsqQuan()
          (quan_a_fn): LsqQuan()
        )
        (4): BatchNorm2d(192, eps=1e-05, momentum=0.1, affine=True, track_running_stats=True)
        (5): ReLU(inplace=True)
        (6): QuanConv2d(
          192, 32, kernel_size=(1, 1), stride=(1, 1), bias=False
          (quan_w_fn): LsqQuan()
          (quan_a_fn): LsqQuan()
        )
        (7): BatchNorm2d(32, eps=1e-05, momentum=0.1, affine=True, track_running_stats=True)
      )
    )
    (10): InvertedResidual(
      (conv): Sequential(
        (0): QuanConv2d(
          32, 192, kernel_size=(1, 1), stride=(1, 1), bias=False
          (quan_w_fn): LsqQuan()
          (quan_a_fn): LsqQuan()
        )
        (1): BatchNorm2d(192, eps=1e-05, momentum=0.1, affine=True, track_running_stats=True)
        (2): ReLU(inplace=True)
        (3): QuanConv2d(
          192, 192, kernel_size=(3, 3), stride=(1, 1), padding=(1, 1), groups=192, bias=False
          (quan_w_fn): LsqQuan()
          (quan_a_fn): LsqQuan()
        )
        (4): BatchNorm2d(192, eps=1e-05, momentum=0.1, affine=True, track_running_stats=True)
        (5): ReLU(inplace=True)
        (6): QuanConv2d(
          192, 32, kernel_size=(1, 1), stride=(1, 1), bias=False
          (quan_w_fn): LsqQuan()
          (quan_a_fn): LsqQuan()
        )
        (7): BatchNorm2d(32, eps=1e-05, momentum=0.1, affine=True, track_running_stats=True)
      )
    )
    (11): InvertedResidual(
      (conv): Sequential(
        (0): QuanConv2d(
          32, 192, kernel_size=(1, 1), stride=(1, 1), bias=False
          (quan_w_fn): LsqQuan()
          (quan_a_fn): LsqQuan()
        )
        (1): BatchNorm2d(192, eps=1e-05, momentum=0.1, affine=True, track_running_stats=True)
        (2): ReLU(inplace=True)
        (3): QuanConv2d(
          192, 192, kernel_size=(3, 3), stride=(1, 1), padding=(1, 1), groups=192, bias=False
          (quan_w_fn): LsqQuan()
          (quan_a_fn): LsqQuan()
        )
        (4): BatchNorm2d(192, eps=1e-05, momentum=0.1, affine=True, track_running_stats=True)
        (5): ReLU(inplace=True)
        (6): QuanConv2d(
          192, 48, kernel_size=(1, 1), stride=(1, 1), bias=False
          (quan_w_fn): LsqQuan()
          (quan_a_fn): LsqQuan()
        )
        (7): BatchNorm2d(48, eps=1e-05, momentum=0.1, affine=True, track_running_stats=True)
      )
    )
    (12): InvertedResidual(
      (conv): Sequential(
        (0): QuanConv2d(
          48, 288, kernel_size=(1, 1), stride=(1, 1), bias=False
          (quan_w_fn): LsqQuan()
          (quan_a_fn): LsqQuan()
        )
        (1): BatchNorm2d(288, eps=1e-05, momentum=0.1, affine=True, track_running_stats=True)
        (2): ReLU(inplace=True)
        (3): QuanConv2d(
          288, 288, kernel_size=(3, 3), stride=(1, 1), padding=(1, 1), groups=288, bias=False
          (quan_w_fn): LsqQuan()
          (quan_a_fn): LsqQuan()
        )
        (4): BatchNorm2d(288, eps=1e-05, momentum=0.1, affine=True, track_running_stats=True)
        (5): ReLU(inplace=True)
        (6): QuanConv2d(
          288, 48, kernel_size=(1, 1), stride=(1, 1), bias=False
          (quan_w_fn): LsqQuan()
          (quan_a_fn): LsqQuan()
        )
        (7): BatchNorm2d(48, eps=1e-05, momentum=0.1, affine=True, track_running_stats=True)
      )
    )
    (13): InvertedResidual(
      (conv): Sequential(
        (0): QuanConv2d(
          48, 288, kernel_size=(1, 1), stride=(1, 1), bias=False
          (quan_w_fn): LsqQuan()
          (quan_a_fn): LsqQuan()
        )
        (1): BatchNorm2d(288, eps=1e-05, momentum=0.1, affine=True, track_running_stats=True)
        (2): ReLU(inplace=True)
        (3): QuanConv2d(
          288, 288, kernel_size=(3, 3), stride=(1, 1), padding=(1, 1), groups=288, bias=False
          (quan_w_fn): LsqQuan()
          (quan_a_fn): LsqQuan()
        )
        (4): BatchNorm2d(288, eps=1e-05, momentum=0.1, affine=True, track_running_stats=True)
        (5): ReLU(inplace=True)
        (6): QuanConv2d(
          288, 48, kernel_size=(1, 1), stride=(1, 1), bias=False
          (quan_w_fn): LsqQuan()
          (quan_a_fn): LsqQuan()
        )
        (7): BatchNorm2d(48, eps=1e-05, momentum=0.1, affine=True, track_running_stats=True)
      )
    )
    (14): InvertedResidual(
      (conv): Sequential(
        (0): QuanConv2d(
          48, 288, kernel_size=(1, 1), stride=(1, 1), bias=False
          (quan_w_fn): LsqQuan()
          (quan_a_fn): LsqQuan()
        )
        (1): BatchNorm2d(288, eps=1e-05, momentum=0.1, affine=True, track_running_stats=True)
        (2): ReLU(inplace=True)
        (3): QuanConv2d(
          288, 288, kernel_size=(3, 3), stride=(2, 2), padding=(1, 1), groups=288, bias=False
          (quan_w_fn): LsqQuan()
          (quan_a_fn): LsqQuan()
        )
        (4): BatchNorm2d(288, eps=1e-05, momentum=0.1, affine=True, track_running_stats=True)
        (5): ReLU(inplace=True)
        (6): QuanConv2d(
          288, 80, kernel_size=(1, 1), stride=(1, 1), bias=False
          (quan_w_fn): LsqQuan()
          (quan_a_fn): LsqQuan()
        )
        (7): BatchNorm2d(80, eps=1e-05, momentum=0.1, affine=True, track_running_stats=True)
      )
    )
    (15): InvertedResidual(
      (conv): Sequential(
        (0): QuanConv2d(
          80, 480, kernel_size=(1, 1), stride=(1, 1), bias=False
          (quan_w_fn): LsqQuan()
          (quan_a_fn): LsqQuan()
        )
        (1): BatchNorm2d(480, eps=1e-05, momentum=0.1, affine=True, track_running_stats=True)
        (2): ReLU(inplace=True)
        (3): QuanConv2d(
          480, 480, kernel_size=(3, 3), stride=(1, 1), padding=(1, 1), groups=480, bias=False
          (quan_w_fn): LsqQuan()
          (quan_a_fn): LsqQuan()
        )
        (4): BatchNorm2d(480, eps=1e-05, momentum=0.1, affine=True, track_running_stats=True)
        (5): ReLU(inplace=True)
        (6): QuanConv2d(
          480, 80, kernel_size=(1, 1), stride=(1, 1), bias=False
          (quan_w_fn): LsqQuan()
          (quan_a_fn): LsqQuan()
        )
        (7): BatchNorm2d(80, eps=1e-05, momentum=0.1, affine=True, track_running_stats=True)
      )
    )
    (16): InvertedResidual(
      (conv): Sequential(
        (0): QuanConv2d(
          80, 480, kernel_size=(1, 1), stride=(1, 1), bias=False
          (quan_w_fn): LsqQuan()
          (quan_a_fn): LsqQuan()
        )
        (1): BatchNorm2d(480, eps=1e-05, momentum=0.1, affine=True, track_running_stats=True)
        (2): ReLU(inplace=True)
        (3): QuanConv2d(
          480, 480, kernel_size=(3, 3), stride=(1, 1), padding=(1, 1), groups=480, bias=False
          (quan_w_fn): LsqQuan()
          (quan_a_fn): LsqQuan()
        )
        (4): BatchNorm2d(480, eps=1e-05, momentum=0.1, affine=True, track_running_stats=True)
        (5): ReLU(inplace=True)
        (6): QuanConv2d(
          480, 80, kernel_size=(1, 1), stride=(1, 1), bias=False
          (quan_w_fn): LsqQuan()
          (quan_a_fn): LsqQuan()
        )
        (7): BatchNorm2d(80, eps=1e-05, momentum=0.1, affine=True, track_running_stats=True)
      )
    )
    (17): InvertedResidual(
      (conv): Sequential(
        (0): QuanConv2d(
          80, 480, kernel_size=(1, 1), stride=(1, 1), bias=False
          (quan_w_fn): LsqQuan()
          (quan_a_fn): LsqQuan()
        )
        (1): BatchNorm2d(480, eps=1e-05, momentum=0.1, affine=True, track_running_stats=True)
        (2): ReLU(inplace=True)
        (3): QuanConv2d(
          480, 480, kernel_size=(3, 3), stride=(1, 1), padding=(1, 1), groups=480, bias=False
          (quan_w_fn): LsqQuan()
          (quan_a_fn): LsqQuan()
        )
        (4): BatchNorm2d(480, eps=1e-05, momentum=0.1, affine=True, track_running_stats=True)
        (5): ReLU(inplace=True)
        (6): QuanConv2d(
          480, 160, kernel_size=(1, 1), stride=(1, 1), bias=False
          (quan_w_fn): LsqQuan()
          (quan_a_fn): LsqQuan()
        )
        (7): BatchNorm2d(160, eps=1e-05, momentum=0.1, affine=True, track_running_stats=True)
      )
    )
  )
  (conv2): Sequential(
    (0): QuanConv2d(
      160, 128, kernel_size=(1, 1), stride=(1, 1), bias=False
      (quan_w_fn): LsqQuan()
      (quan_a_fn): LsqQuan()
    )
    (1): BatchNorm2d(128, eps=1e-05, momentum=0.1, affine=True, track_running_stats=True)
    (2): ReLU(inplace=True)
  )
  (deconv_layers): Sequential(
    (0): QuanConvTranspose2d(
      128, 128, kernel_size=(4, 4), stride=(2, 2), padding=(1, 1), groups=128, bias=False
      (quan_w_fn): LsqQuan()
      (quan_a_fn): LsqQuan()
    )
    (1): BatchNorm2d(128, eps=1e-05, momentum=0.1, affine=True, track_running_stats=True)
    (2): ReLU(inplace=True)
    (3): QuanConv2d(
      128, 128, kernel_size=(1, 1), stride=(1, 1), bias=False
      (quan_w_fn): LsqQuan()
      (quan_a_fn): LsqQuan()
    )
    (4): BatchNorm2d(128, eps=1e-05, momentum=0.1, affine=True, track_running_stats=True)
    (5): ReLU(inplace=True)
    (6): QuanConvTranspose2d(
      128, 128, kernel_size=(4, 4), stride=(2, 2), padding=(1, 1), groups=128, bias=False
      (quan_w_fn): LsqQuan()
      (quan_a_fn): LsqQuan()
    )
    (7): BatchNorm2d(128, eps=1e-05, momentum=0.1, affine=True, track_running_stats=True)
    (8): ReLU(inplace=True)
    (9): QuanConv2d(
      128, 128, kernel_size=(1, 1), stride=(1, 1), bias=False
      (quan_w_fn): LsqQuan()
      (quan_a_fn): LsqQuan()
    )
    (10): BatchNorm2d(128, eps=1e-05, momentum=0.1, affine=True, track_running_stats=True)
    (11): ReLU(inplace=True)
    (12): QuanConvTranspose2d(
      128, 128, kernel_size=(4, 4), stride=(2, 2), padding=(1, 1), groups=128, bias=False
      (quan_w_fn): LsqQuan()
      (quan_a_fn): LsqQuan()
    )
    (13): BatchNorm2d(128, eps=1e-05, momentum=0.1, affine=True, track_running_stats=True)
    (14): ReLU(inplace=True)
    (15): QuanConv2d(
      128, 128, kernel_size=(1, 1), stride=(1, 1), bias=False
      (quan_w_fn): LsqQuan()
      (quan_a_fn): LsqQuan()
    )
    (16): BatchNorm2d(128, eps=1e-05, momentum=0.1, affine=True, track_running_stats=True)
    (17): ReLU(inplace=True)
  )
  (final_layer): QuanConv2d(
    128, 17, kernel_size=(1, 1), stride=(1, 1), bias=False
    (quan_w_fn): LsqQuan()
    (quan_a_fn): LsqQuan()
  )
)

*******************Using quant_model in test*******************